{"format": "graph-model", "generatedBy": "2.8.0", "convertedBy": "TensorFlow.js Converter v3.17.0", "signature": {"inputs": {"audio": {"name": "audio:0", "dtype": "DT_FLOAT", "tensorShape": {"dim": [{"size": "-1"}]}}}, "outputs": {"classifier": {"name": "Identity:0", "dtype": "DT_FLOAT", "tensorShape": {"dim": [{"size": "2"}]}}}}, "modelTopology": {"node": [{"name": "StatefulPartitionedCall/model_1/my_model/dense/MatMul/ReadVariableOp", "op": "Const", "attr": {"value": {"tensor": {"dtype": "DT_FLOAT", "tensorShape": {"dim": [{"size": "1024"}, {"size": "512"}]}}}, "dtype": {"type": "DT_FLOAT"}}}, {"name": "StatefulPartitionedCall/model_1/my_model/dense/BiasAdd/ReadVariableOp", "op": "Const", "attr": {"dtype": {"type": "DT_FLOAT"}, "value": {"tensor": {"dtype": "DT_FLOAT", "tensorShape": {"dim": [{"size": "512"}]}}}}}, {"name": "StatefulPartitionedCall/model_1/my_model/dense_1/MatMul/ReadVariableOp", "op": "Const", "attr": {"value": {"tensor": {"dtype": "DT_FLOAT", "tensorShape": {"dim": [{"size": "512"}, {"size": "2"}]}}}, "dtype": {"type": "DT_FLOAT"}}}, {"name": "StatefulPartitionedCall/model_1/my_model/dense_1/BiasAdd/ReadVariableOp", "op": "Const", "attr": {"dtype": {"type": "DT_FLOAT"}, "value": {"tensor": {"dtype": "DT_FLOAT", "tensorShape": {"dim": [{"size": "2"}]}}}}}, {"name": "StatefulPartitionedCall/model_1/classifier/Mean/reduction_indices", "op": "Const", "attr": {"dtype": {"type": "DT_INT32"}, "value": {"tensor": {"dtype": "DT_INT32", "tensorShape": {}}}}}, {"name": "audio", "op": "Placeholder", "attr": {"shape": {"shape": {"dim": [{"size": "-1"}]}}, "dtype": {"type": "DT_FLOAT"}}}, {"name": "StatefulPartitionedCall/model_1/yamnet/StatefulPartitionedCall/StatefulPartitionedCall/yamnet_frames/layer1/conv/Conv2D_weights", "op": "Const", "attr": {"dtype": {"type": "DT_FLOAT"}, "value": {"tensor": {"dtype": "DT_FLOAT", "tensorShape": {"dim": [{"size": "3"}, {"size": "3"}, {"size": "1"}, {"size": "32"}]}}}}}, {"name": "StatefulPartitionedCall/model_1/yamnet/StatefulPartitionedCall/StatefulPartitionedCall/yamnet_frames/layer12/pointwise_conv/Conv2D_bn_offset", "op": "Const", "attr": {"value": {"tensor": {"dtype": "DT_FLOAT", "tensorShape": {"dim": [{"size": "512"}]}}}, "dtype": {"type": "DT_FLOAT"}}}, {"name": "StatefulPartitionedCall/model_1/yamnet/StatefulPartitionedCall/StatefulPartitionedCall/yamnet_frames/layer1/conv/Conv2D_bn_offset", "op": "Const", "attr": {"dtype": {"type": "DT_FLOAT"}, "value": {"tensor": {"dtype": "DT_FLOAT", "tensorShape": {"dim": [{"size": "32"}]}}}}}, {"name": "StatefulPartitionedCall/model_1/yamnet/StatefulPartitionedCall/StatefulPartitionedCall/yamnet_frames/layer2/depthwise_conv/depthwise_weights", "op": "Const", "attr": {"dtype": {"type": "DT_FLOAT"}, "value": {"tensor": {"dtype": "DT_FLOAT", "tensorShape": {"dim": [{"size": "3"}, {"size": "3"}, {"size": "32"}, {"size": "1"}]}}}}}, {"name": "StatefulPartitionedCall/model_1/yamnet/StatefulPartitionedCall/StatefulPartitionedCall/yamnet_frames/layer2/depthwise_conv/depthwise_bn_offset", "op": "Const", "attr": {"value": {"tensor": {"dtype": "DT_FLOAT", "tensorShape": {"dim": [{"size": "32"}]}}}, "dtype": {"type": "DT_FLOAT"}}}, {"name": "StatefulPartitionedCall/model_1/yamnet/StatefulPartitionedCall/StatefulPartitionedCall/yamnet_frames/layer2/pointwise_conv/Conv2D_weights", "op": "Const", "attr": {"dtype": {"type": "DT_FLOAT"}, "value": {"tensor": {"dtype": "DT_FLOAT", "tensorShape": {"dim": [{"size": "1"}, {"size": "1"}, {"size": "32"}, {"size": "64"}]}}}}}, {"name": "StatefulPartitionedCall/model_1/yamnet/StatefulPartitionedCall/StatefulPartitionedCall/yamnet_frames/layer2/pointwise_conv/Conv2D_bn_offset", "op": "Const", "attr": {"dtype": {"type": "DT_FLOAT"}, "value": {"tensor": {"dtype": "DT_FLOAT", "tensorShape": {"dim": [{"size": "64"}]}}}}}, {"name": "StatefulPartitionedCall/model_1/yamnet/StatefulPartitionedCall/StatefulPartitionedCall/yamnet_frames/layer13/depthwise_conv/depthwise_weights", "op": "Const", "attr": {"dtype": {"type": "DT_FLOAT"}, "value": {"tensor": {"dtype": "DT_FLOAT", "tensorShape": {"dim": [{"size": "3"}, {"size": "3"}, {"size": "512"}, {"size": "1"}]}}}}}, {"name": "StatefulPartitionedCall/model_1/yamnet/StatefulPartitionedCall/StatefulPartitionedCall/yamnet_frames/layer3/depthwise_conv/depthwise_weights", "op": "Const", "attr": {"value": {"tensor": {"dtype": "DT_FLOAT", "tensorShape": {"dim": [{"size": "3"}, {"size": "3"}, {"size": "64"}, {"size": "1"}]}}}, "dtype": {"type": "DT_FLOAT"}}}, {"name": "StatefulPartitionedCall/model_1/yamnet/StatefulPartitionedCall/StatefulPartitionedCall/yamnet_frames/layer3/depthwise_conv/depthwise_bn_offset", "op": "Const", "attr": {"value": {"tensor": {"dtype": "DT_FLOAT", "tensorShape": {"dim": [{"size": "64"}]}}}, "dtype": {"type": "DT_FLOAT"}}}, {"name": "StatefulPartitionedCall/model_1/yamnet/StatefulPartitionedCall/StatefulPartitionedCall/yamnet_frames/layer3/pointwise_conv/Conv2D_weights", "op": "Const", "attr": {"value": {"tensor": {"dtype": "DT_FLOAT", "tensorShape": {"dim": [{"size": "1"}, {"size": "1"}, {"size": "64"}, {"size": "128"}]}}}, "dtype": {"type": "DT_FLOAT"}}}, {"name": "StatefulPartitionedCall/model_1/yamnet/StatefulPartitionedCall/StatefulPartitionedCall/yamnet_frames/layer3/pointwise_conv/Conv2D_bn_offset", "op": "Const", "attr": {"value": {"tensor": {"dtype": "DT_FLOAT", "tensorShape": {"dim": [{"size": "128"}]}}}, "dtype": {"type": "DT_FLOAT"}}}, {"name": "StatefulPartitionedCall/model_1/yamnet/StatefulPartitionedCall/StatefulPartitionedCall/yamnet_frames/layer13/depthwise_conv/depthwise_bn_offset", "op": "Const", "attr": {"dtype": {"type": "DT_FLOAT"}, "value": {"tensor": {"dtype": "DT_FLOAT", "tensorShape": {"dim": [{"size": "512"}]}}}}}, {"name": "StatefulPartitionedCall/model_1/yamnet/StatefulPartitionedCall/StatefulPartitionedCall/yamnet_frames/layer4/depthwise_conv/depthwise_weights", "op": "Const", "attr": {"value": {"tensor": {"dtype": "DT_FLOAT", "tensorShape": {"dim": [{"size": "3"}, {"size": "3"}, {"size": "128"}, {"size": "1"}]}}}, "dtype": {"type": "DT_FLOAT"}}}, {"name": "StatefulPartitionedCall/model_1/yamnet/StatefulPartitionedCall/StatefulPartitionedCall/yamnet_frames/layer4/depthwise_conv/depthwise_bn_offset", "op": "Const", "attr": {"dtype": {"type": "DT_FLOAT"}, "value": {"tensor": {"dtype": "DT_FLOAT", "tensorShape": {"dim": [{"size": "128"}]}}}}}, {"name": "StatefulPartitionedCall/model_1/yamnet/StatefulPartitionedCall/StatefulPartitionedCall/yamnet_frames/layer4/pointwise_conv/Conv2D_weights", "op": "Const", "attr": {"dtype": {"type": "DT_FLOAT"}, "value": {"tensor": {"dtype": "DT_FLOAT", "tensorShape": {"dim": [{"size": "1"}, {"size": "1"}, {"size": "128"}, {"size": "128"}]}}}}}, {"name": "StatefulPartitionedCall/model_1/yamnet/StatefulPartitionedCall/StatefulPartitionedCall/yamnet_frames/layer4/pointwise_conv/Conv2D_bn_offset", "op": "Const", "attr": {"dtype": {"type": "DT_FLOAT"}, "value": {"tensor": {"dtype": "DT_FLOAT", "tensorShape": {"dim": [{"size": "128"}]}}}}}, {"name": "StatefulPartitionedCall/model_1/yamnet/StatefulPartitionedCall/StatefulPartitionedCall/yamnet_frames/layer5/depthwise_conv/depthwise_weights", "op": "Const", "attr": {"dtype": {"type": "DT_FLOAT"}, "value": {"tensor": {"dtype": "DT_FLOAT", "tensorShape": {"dim": [{"size": "3"}, {"size": "3"}, {"size": "128"}, {"size": "1"}]}}}}}, {"name": "StatefulPartitionedCall/model_1/yamnet/StatefulPartitionedCall/StatefulPartitionedCall/yamnet_frames/layer5/depthwise_conv/depthwise_bn_offset", "op": "Const", "attr": {"dtype": {"type": "DT_FLOAT"}, "value": {"tensor": {"dtype": "DT_FLOAT", "tensorShape": {"dim": [{"size": "128"}]}}}}}, {"name": "StatefulPartitionedCall/model_1/yamnet/StatefulPartitionedCall/StatefulPartitionedCall/yamnet_frames/layer5/pointwise_conv/Conv2D_weights", "op": "Const", "attr": {"dtype": {"type": "DT_FLOAT"}, "value": {"tensor": {"dtype": "DT_FLOAT", "tensorShape": {"dim": [{"size": "1"}, {"size": "1"}, {"size": "128"}, {"size": "256"}]}}}}}, {"name": "StatefulPartitionedCall/model_1/yamnet/StatefulPartitionedCall/StatefulPartitionedCall/yamnet_frames/layer13/pointwise_conv/Conv2D_weights", "op": "Const", "attr": {"dtype": {"type": "DT_FLOAT"}, "value": {"tensor": {"dtype": "DT_FLOAT", "tensorShape": {"dim": [{"size": "1"}, {"size": "1"}, {"size": "512"}, {"size": "1024"}]}}}}}, {"name": "StatefulPartitionedCall/model_1/yamnet/StatefulPartitionedCall/StatefulPartitionedCall/yamnet_frames/layer5/pointwise_conv/Conv2D_bn_offset", "op": "Const", "attr": {"dtype": {"type": "DT_FLOAT"}, "value": {"tensor": {"dtype": "DT_FLOAT", "tensorShape": {"dim": [{"size": "256"}]}}}}}, {"name": "StatefulPartitionedCall/model_1/yamnet/StatefulPartitionedCall/StatefulPartitionedCall/yamnet_frames/layer6/depthwise_conv/depthwise_weights", "op": "Const", "attr": {"value": {"tensor": {"dtype": "DT_FLOAT", "tensorShape": {"dim": [{"size": "3"}, {"size": "3"}, {"size": "256"}, {"size": "1"}]}}}, "dtype": {"type": "DT_FLOAT"}}}, {"name": "StatefulPartitionedCall/model_1/yamnet/StatefulPartitionedCall/StatefulPartitionedCall/yamnet_frames/layer6/depthwise_conv/depthwise_bn_offset", "op": "Const", "attr": {"value": {"tensor": {"dtype": "DT_FLOAT", "tensorShape": {"dim": [{"size": "256"}]}}}, "dtype": {"type": "DT_FLOAT"}}}, {"name": "StatefulPartitionedCall/model_1/yamnet/StatefulPartitionedCall/StatefulPartitionedCall/yamnet_frames/layer6/pointwise_conv/Conv2D_weights", "op": "Const", "attr": {"dtype": {"type": "DT_FLOAT"}, "value": {"tensor": {"dtype": "DT_FLOAT", "tensorShape": {"dim": [{"size": "1"}, {"size": "1"}, {"size": "256"}, {"size": "256"}]}}}}}, {"name": "StatefulPartitionedCall/model_1/yamnet/StatefulPartitionedCall/StatefulPartitionedCall/yamnet_frames/layer13/pointwise_conv/Conv2D_bn_offset", "op": "Const", "attr": {"dtype": {"type": "DT_FLOAT"}, "value": {"tensor": {"dtype": "DT_FLOAT", "tensorShape": {"dim": [{"size": "1024"}]}}}}}, {"name": "StatefulPartitionedCall/model_1/yamnet/StatefulPartitionedCall/StatefulPartitionedCall/yamnet_frames/layer6/pointwise_conv/Conv2D_bn_offset", "op": "Const", "attr": {"dtype": {"type": "DT_FLOAT"}, "value": {"tensor": {"dtype": "DT_FLOAT", "tensorShape": {"dim": [{"size": "256"}]}}}}}, {"name": "StatefulPartitionedCall/model_1/yamnet/StatefulPartitionedCall/StatefulPartitionedCall/yamnet_frames/layer7/depthwise_conv/depthwise_weights", "op": "Const", "attr": {"dtype": {"type": "DT_FLOAT"}, "value": {"tensor": {"dtype": "DT_FLOAT", "tensorShape": {"dim": [{"size": "3"}, {"size": "3"}, {"size": "256"}, {"size": "1"}]}}}}}, {"name": "StatefulPartitionedCall/model_1/yamnet/StatefulPartitionedCall/StatefulPartitionedCall/yamnet_frames/layer7/depthwise_conv/depthwise_bn_offset", "op": "Const", "attr": {"dtype": {"type": "DT_FLOAT"}, "value": {"tensor": {"dtype": "DT_FLOAT", "tensorShape": {"dim": [{"size": "256"}]}}}}}, {"name": "StatefulPartitionedCall/model_1/yamnet/StatefulPartitionedCall/StatefulPartitionedCall/yamnet_frames/layer7/pointwise_conv/Conv2D_weights", "op": "Const", "attr": {"value": {"tensor": {"dtype": "DT_FLOAT", "tensorShape": {"dim": [{"size": "1"}, {"size": "1"}, {"size": "256"}, {"size": "512"}]}}}, "dtype": {"type": "DT_FLOAT"}}}, {"name": "StatefulPartitionedCall/model_1/yamnet/StatefulPartitionedCall/StatefulPartitionedCall/yamnet_frames/layer7/pointwise_conv/Conv2D_bn_offset", "op": "Const", "attr": {"dtype": {"type": "DT_FLOAT"}, "value": {"tensor": {"dtype": "DT_FLOAT", "tensorShape": {"dim": [{"size": "512"}]}}}}}, {"name": "StatefulPartitionedCall/model_1/yamnet/StatefulPartitionedCall/StatefulPartitionedCall/yamnet_frames/layer14/depthwise_conv/depthwise_weights", "op": "Const", "attr": {"dtype": {"type": "DT_FLOAT"}, "value": {"tensor": {"dtype": "DT_FLOAT", "tensorShape": {"dim": [{"size": "3"}, {"size": "3"}, {"size": "1024"}, {"size": "1"}]}}}}}, {"name": "StatefulPartitionedCall/model_1/yamnet/StatefulPartitionedCall/StatefulPartitionedCall/yamnet_frames/layer8/depthwise_conv/depthwise_weights", "op": "Const", "attr": {"dtype": {"type": "DT_FLOAT"}, "value": {"tensor": {"dtype": "DT_FLOAT", "tensorShape": {"dim": [{"size": "3"}, {"size": "3"}, {"size": "512"}, {"size": "1"}]}}}}}, {"name": "StatefulPartitionedCall/model_1/yamnet/StatefulPartitionedCall/StatefulPartitionedCall/yamnet_frames/layer8/depthwise_conv/depthwise_bn_offset", "op": "Const", "attr": {"dtype": {"type": "DT_FLOAT"}, "value": {"tensor": {"dtype": "DT_FLOAT", "tensorShape": {"dim": [{"size": "512"}]}}}}}, {"name": "StatefulPartitionedCall/model_1/yamnet/StatefulPartitionedCall/StatefulPartitionedCall/yamnet_frames/layer8/pointwise_conv/Conv2D_weights", "op": "Const", "attr": {"value": {"tensor": {"dtype": "DT_FLOAT", "tensorShape": {"dim": [{"size": "1"}, {"size": "1"}, {"size": "512"}, {"size": "512"}]}}}, "dtype": {"type": "DT_FLOAT"}}}, {"name": "StatefulPartitionedCall/model_1/yamnet/StatefulPartitionedCall/StatefulPartitionedCall/yamnet_frames/layer8/pointwise_conv/Conv2D_bn_offset", "op": "Const", "attr": {"value": {"tensor": {"dtype": "DT_FLOAT", "tensorShape": {"dim": [{"size": "512"}]}}}, "dtype": {"type": "DT_FLOAT"}}}, {"name": "StatefulPartitionedCall/model_1/yamnet/StatefulPartitionedCall/StatefulPartitionedCall/yamnet_frames/layer14/depthwise_conv/depthwise_bn_offset", "op": "Const", "attr": {"dtype": {"type": "DT_FLOAT"}, "value": {"tensor": {"dtype": "DT_FLOAT", "tensorShape": {"dim": [{"size": "1024"}]}}}}}, {"name": "StatefulPartitionedCall/model_1/yamnet/StatefulPartitionedCall/StatefulPartitionedCall/yamnet_frames/layer9/depthwise_conv/depthwise_weights", "op": "Const", "attr": {"dtype": {"type": "DT_FLOAT"}, "value": {"tensor": {"dtype": "DT_FLOAT", "tensorShape": {"dim": [{"size": "3"}, {"size": "3"}, {"size": "512"}, {"size": "1"}]}}}}}, {"name": "StatefulPartitionedCall/model_1/yamnet/StatefulPartitionedCall/StatefulPartitionedCall/yamnet_frames/layer9/depthwise_conv/depthwise_bn_offset", "op": "Const", "attr": {"dtype": {"type": "DT_FLOAT"}, "value": {"tensor": {"dtype": "DT_FLOAT", "tensorShape": {"dim": [{"size": "512"}]}}}}}, {"name": "StatefulPartitionedCall/model_1/yamnet/StatefulPartitionedCall/StatefulPartitionedCall/yamnet_frames/layer9/pointwise_conv/Conv2D_weights", "op": "Const", "attr": {"dtype": {"type": "DT_FLOAT"}, "value": {"tensor": {"dtype": "DT_FLOAT", "tensorShape": {"dim": [{"size": "1"}, {"size": "1"}, {"size": "512"}, {"size": "512"}]}}}}}, {"name": "StatefulPartitionedCall/model_1/yamnet/StatefulPartitionedCall/StatefulPartitionedCall/yamnet_frames/layer9/pointwise_conv/Conv2D_bn_offset", "op": "Const", "attr": {"value": {"tensor": {"dtype": "DT_FLOAT", "tensorShape": {"dim": [{"size": "512"}]}}}, "dtype": {"type": "DT_FLOAT"}}}, {"name": "StatefulPartitionedCall/model_1/yamnet/StatefulPartitionedCall/StatefulPartitionedCall/yamnet_frames/layer10/depthwise_conv/depthwise_weights", "op": "Const", "attr": {"dtype": {"type": "DT_FLOAT"}, "value": {"tensor": {"dtype": "DT_FLOAT", "tensorShape": {"dim": [{"size": "3"}, {"size": "3"}, {"size": "512"}, {"size": "1"}]}}}}}, {"name": "StatefulPartitionedCall/model_1/yamnet/StatefulPartitionedCall/StatefulPartitionedCall/yamnet_frames/layer10/depthwise_conv/depthwise_bn_offset", "op": "Const", "attr": {"value": {"tensor": {"dtype": "DT_FLOAT", "tensorShape": {"dim": [{"size": "512"}]}}}, "dtype": {"type": "DT_FLOAT"}}}, {"name": "StatefulPartitionedCall/model_1/yamnet/StatefulPartitionedCall/StatefulPartitionedCall/yamnet_frames/layer10/pointwise_conv/Conv2D_weights", "op": "Const", "attr": {"value": {"tensor": {"dtype": "DT_FLOAT", "tensorShape": {"dim": [{"size": "1"}, {"size": "1"}, {"size": "512"}, {"size": "512"}]}}}, "dtype": {"type": "DT_FLOAT"}}}, {"name": "StatefulPartitionedCall/model_1/yamnet/StatefulPartitionedCall/StatefulPartitionedCall/yamnet_frames/layer14/pointwise_conv/Conv2D_weights", "op": "Const", "attr": {"value": {"tensor": {"dtype": "DT_FLOAT", "tensorShape": {"dim": [{"size": "1"}, {"size": "1"}, {"size": "1024"}, {"size": "1024"}]}}}, "dtype": {"type": "DT_FLOAT"}}}, {"name": "StatefulPartitionedCall/model_1/yamnet/StatefulPartitionedCall/StatefulPartitionedCall/yamnet_frames/layer10/pointwise_conv/Conv2D_bn_offset", "op": "Const", "attr": {"value": {"tensor": {"dtype": "DT_FLOAT", "tensorShape": {"dim": [{"size": "512"}]}}}, "dtype": {"type": "DT_FLOAT"}}}, {"name": "StatefulPartitionedCall/model_1/yamnet/StatefulPartitionedCall/StatefulPartitionedCall/yamnet_frames/layer11/depthwise_conv/depthwise_weights", "op": "Const", "attr": {"dtype": {"type": "DT_FLOAT"}, "value": {"tensor": {"dtype": "DT_FLOAT", "tensorShape": {"dim": [{"size": "3"}, {"size": "3"}, {"size": "512"}, {"size": "1"}]}}}}}, {"name": "StatefulPartitionedCall/model_1/yamnet/StatefulPartitionedCall/StatefulPartitionedCall/yamnet_frames/layer11/depthwise_conv/depthwise_bn_offset", "op": "Const", "attr": {"value": {"tensor": {"dtype": "DT_FLOAT", "tensorShape": {"dim": [{"size": "512"}]}}}, "dtype": {"type": "DT_FLOAT"}}}, {"name": "StatefulPartitionedCall/model_1/yamnet/StatefulPartitionedCall/StatefulPartitionedCall/yamnet_frames/layer11/pointwise_conv/Conv2D_weights", "op": "Const", "attr": {"value": {"tensor": {"dtype": "DT_FLOAT", "tensorShape": {"dim": [{"size": "1"}, {"size": "1"}, {"size": "512"}, {"size": "512"}]}}}, "dtype": {"type": "DT_FLOAT"}}}, {"name": "StatefulPartitionedCall/model_1/yamnet/StatefulPartitionedCall/StatefulPartitionedCall/yamnet_frames/layer14/pointwise_conv/Conv2D_bn_offset", "op": "Const", "attr": {"dtype": {"type": "DT_FLOAT"}, "value": {"tensor": {"dtype": "DT_FLOAT", "tensorShape": {"dim": [{"size": "1024"}]}}}}}, {"name": "StatefulPartitionedCall/model_1/yamnet/StatefulPartitionedCall/StatefulPartitionedCall/yamnet_frames/layer11/pointwise_conv/Conv2D_bn_offset", "op": "Const", "attr": {"value": {"tensor": {"dtype": "DT_FLOAT", "tensorShape": {"dim": [{"size": "512"}]}}}, "dtype": {"type": "DT_FLOAT"}}}, {"name": "StatefulPartitionedCall/model_1/yamnet/StatefulPartitionedCall/StatefulPartitionedCall/yamnet_frames/layer12/depthwise_conv/depthwise_weights", "op": "Const", "attr": {"dtype": {"type": "DT_FLOAT"}, "value": {"tensor": {"dtype": "DT_FLOAT", "tensorShape": {"dim": [{"size": "3"}, {"size": "3"}, {"size": "512"}, {"size": "1"}]}}}}}, {"name": "StatefulPartitionedCall/model_1/yamnet/StatefulPartitionedCall/StatefulPartitionedCall/yamnet_frames/layer12/depthwise_conv/depthwise_bn_offset", "op": "Const", "attr": {"dtype": {"type": "DT_FLOAT"}, "value": {"tensor": {"dtype": "DT_FLOAT", "tensorShape": {"dim": [{"size": "512"}]}}}}}, {"name": "StatefulPartitionedCall/model_1/yamnet/StatefulPartitionedCall/StatefulPartitionedCall/yamnet_frames/layer12/pointwise_conv/Conv2D_weights", "op": "Const", "attr": {"value": {"tensor": {"dtype": "DT_FLOAT", "tensorShape": {"dim": [{"size": "1"}, {"size": "1"}, {"size": "512"}, {"size": "512"}]}}}, "dtype": {"type": "DT_FLOAT"}}}, {"name": "StatefulPartitionedCall/model_1/yamnet/StatefulPartitionedCall/StatefulPartitionedCall/yamnet_frames/tf_op_layer_Shape/Shape", "op": "Shape", "input": ["audio"], "attr": {"out_type": {"type": "DT_INT32"}, "_cloned": {"b": true}, "T": {"type": "DT_FLOAT"}}}, {"name": "StatefulPartitionedCall/model_1/yamnet/StatefulPartitionedCall/StatefulPartitionedCall/yamnet_frames/tf_op_layer_Mul_4/Mul_4/y", "op": "Const", "input": ["^audio"], "attr": {"dtype": {"type": "DT_INT32"}, "value": {"tensor": {"dtype": "DT_INT32", "tensorShape": {}}}}}, {"name": "StatefulPartitionedCall/model_1/yamnet/StatefulPartitionedCall/StatefulPartitionedCall/yamnet_frames/tf_op_layer_concat_3/concat_3/axis", "op": "Const", "input": ["^audio"], "attr": {"value": {"tensor": {"dtype": "DT_INT32", "tensorShape": {}}}, "dtype": {"type": "DT_INT32"}}}, {"name": "StatefulPartitionedCall/model_1/yamnet/StatefulPartitionedCall/StatefulPartitionedCall/yamnet_frames/tf_op_layer_FloorDiv_3/FloorDiv_3/y", "op": "Const", "input": ["^audio"], "attr": {"value": {"tensor": {"dtype": "DT_INT32", "tensorShape": {}}}, "dtype": {"type": "DT_INT32"}}}, {"name": "StatefulPartitionedCall/model_1/yamnet/StatefulPartitionedCall/StatefulPartitionedCall/yamnet_frames/tf_op_layer_concat_4/values_1/concat_4/values_1/1", "op": "Const", "input": ["^audio"], "attr": {"value": {"tensor": {"dtype": "DT_INT32", "tensorShape": {}}}, "dtype": {"type": "DT_INT32"}}}, {"name": "StatefulPartitionedCall/model_1/yamnet/StatefulPartitionedCall/StatefulPartitionedCall/yamnet_frames/tf_op_layer_concat_4/concat_4/axis", "op": "Const", "input": ["^audio"], "attr": {"value": {"tensor": {"dtype": "DT_INT32", "tensorShape": {}}}, "dtype": {"type": "DT_INT32"}}}, {"name": "StatefulPartitionedCall/model_1/yamnet/StatefulPartitionedCall/StatefulPartitionedCall/yamnet_frames/tf_op_layer_Range_1/Range_1/start", "op": "Const", "input": ["^audio"], "attr": {"value": {"tensor": {"dtype": "DT_INT32", "tensorShape": {}}}, "dtype": {"type": "DT_INT32"}}}, {"name": "StatefulPartitionedCall/model_1/yamnet/StatefulPartitionedCall/StatefulPartitionedCall/yamnet_frames/tf_op_layer_Range_1/Range_1/delta", "op": "Const", "input": ["^audio"], "attr": {"value": {"tensor": {"dtype": "DT_INT32", "tensorShape": {}}}, "dtype": {"type": "DT_INT32"}}}, {"name": "StatefulPartitionedCall/model_1/yamnet/StatefulPartitionedCall/StatefulPartitionedCall/yamnet_frames/tf_op_layer_Reshape_6/shape/Reshape_6/shape/1", "op": "Const", "input": ["^audio"], "attr": {"value": {"tensor": {"dtype": "DT_INT32", "tensorShape": {}}}, "dtype": {"type": "DT_INT32"}}}, {"name": "StatefulPartitionedCall/model_1/yamnet/StatefulPartitionedCall/StatefulPartitionedCall/yamnet_frames/tf_op_layer_AddV2_5/AddV2_5/y", "op": "Const", "input": ["^audio"], "attr": {"value": {"tensor": {"dtype": "DT_INT32", "tensorShape": {"dim": [{"size": "1"}, {"size": "2"}]}}}, "dtype": {"type": "DT_INT32"}}}, {"name": "StatefulPartitionedCall/model_1/yamnet/StatefulPartitionedCall/StatefulPartitionedCall/yamnet_frames/tf_op_layer_GatherV2_1/GatherV2_1/axis", "op": "Const", "input": ["^audio"], "attr": {"value": {"tensor": {"dtype": "DT_INT32", "tensorShape": {}}}, "dtype": {"type": "DT_INT32"}}}, {"name": "StatefulPartitionedCall/model_1/yamnet/StatefulPartitionedCall/StatefulPartitionedCall/yamnet_frames/tf_op_layer_Maximum_3/Maximum_3/x", "op": "Const", "input": ["^audio"], "attr": {"value": {"tensor": {"dtype": "DT_INT32", "tensorShape": {}}}, "dtype": {"type": "DT_INT32"}}}, {"name": "StatefulPartitionedCall/model_1/yamnet/StatefulPartitionedCall/StatefulPartitionedCall/yamnet_frames/tf_op_layer_AddV2_4/AddV2_4/x", "op": "Const", "input": ["^audio"], "attr": {"dtype": {"type": "DT_INT32"}, "value": {"tensor": {"dtype": "DT_INT32", "tensorShape": {}}}}}, {"name": "StatefulPartitionedCall/model_1/yamnet/StatefulPartitionedCall/StatefulPartitionedCall/yamnet_frames/tf_op_layer_Reshape_4/Reshape_4/shape", "op": "Const", "input": ["^audio"], "attr": {"value": {"tensor": {"dtype": "DT_INT32", "tensorShape": {"dim": [{}]}}}, "dtype": {"type": "DT_INT32"}}}, {"name": "StatefulPartitionedCall/model_1/yamnet/StatefulPartitionedCall/StatefulPartitionedCall/yamnet_frames/tf_op_layer_Sub_4/Sub_4/y", "op": "Const", "input": ["^audio"], "attr": {"value": {"tensor": {"dtype": "DT_INT32", "tensorShape": {}}}, "dtype": {"type": "DT_INT32"}}}, {"name": "StatefulPartitionedCall/model_1/yamnet/StatefulPartitionedCall/StatefulPartitionedCall/yamnet_frames/tf_op_layer_FloorDiv_2/FloorDiv_2/y", "op": "Const", "input": ["^audio"], "attr": {"dtype": {"type": "DT_INT32"}, "value": {"tensor": {"dtype": "DT_INT32", "tensorShape": {}}}}}, {"name": "StatefulPartitionedCall/model_1/yamnet/StatefulPartitionedCall/StatefulPartitionedCall/yamnet_frames/tf_op_layer_concat_5/values_1/Sub_4/y", "op": "Const", "input": ["^audio"], "attr": {"dtype": {"type": "DT_INT32"}, "value": {"tensor": {"dtype": "DT_INT32", "tensorShape": {}}}}}, {"name": "StatefulPartitionedCall/model_1/yamnet/StatefulPartitionedCall/StatefulPartitionedCall/yamnet_frames/tf_op_layer_Mul_1/Mul_1/y", "op": "Const", "input": ["^audio"], "attr": {"dtype": {"type": "DT_INT32"}, "value": {"tensor": {"dtype": "DT_INT32", "tensorShape": {}}}}}, {"name": "StatefulPartitionedCall/model_1/yamnet/StatefulPartitionedCall/StatefulPartitionedCall/yamnet_frames/tf_op_layer_concat/concat/axis", "op": "Const", "input": ["^audio"], "attr": {"value": {"tensor": {"dtype": "DT_INT32", "tensorShape": {}}}, "dtype": {"type": "DT_INT32"}}}, {"name": "StatefulPartitionedCall/model_1/yamnet/StatefulPartitionedCall/StatefulPartitionedCall/yamnet_frames/tf_op_layer_FloorDiv_1/FloorDiv_1/y", "op": "Const", "input": ["^audio"], "attr": {"dtype": {"type": "DT_INT32"}, "value": {"tensor": {"dtype": "DT_INT32", "tensorShape": {}}}}}, {"name": "StatefulPartitionedCall/model_1/yamnet/StatefulPartitionedCall/StatefulPartitionedCall/yamnet_frames/tf_op_layer_concat_1/values_1/concat_1/values_1/1", "op": "Const", "input": ["^audio"], "attr": {"dtype": {"type": "DT_INT32"}, "value": {"tensor": {"dtype": "DT_INT32", "tensorShape": {}}}}}, {"name": "StatefulPartitionedCall/model_1/yamnet/StatefulPartitionedCall/StatefulPartitionedCall/yamnet_frames/tf_op_layer_concat_1/concat_1/axis", "op": "Const", "input": ["^audio"], "attr": {"value": {"tensor": {"dtype": "DT_INT32", "tensorShape": {}}}, "dtype": {"type": "DT_INT32"}}}, {"name": "StatefulPartitionedCall/model_1/yamnet/StatefulPartitionedCall/StatefulPartitionedCall/yamnet_frames/tf_op_layer_Range/Range/start", "op": "Const", "input": ["^audio"], "attr": {"value": {"tensor": {"dtype": "DT_INT32", "tensorShape": {}}}, "dtype": {"type": "DT_INT32"}}}, {"name": "StatefulPartitionedCall/model_1/yamnet/StatefulPartitionedCall/StatefulPartitionedCall/yamnet_frames/tf_op_layer_Range/Range/delta", "op": "Const", "input": ["^audio"], "attr": {"value": {"tensor": {"dtype": "DT_INT32", "tensorShape": {}}}, "dtype": {"type": "DT_INT32"}}}, {"name": "StatefulPartitionedCall/model_1/yamnet/StatefulPartitionedCall/StatefulPartitionedCall/yamnet_frames/tf_op_layer_Mul_2/Mul_2/y", "op": "Const", "input": ["^audio"], "attr": {"dtype": {"type": "DT_INT32"}, "value": {"tensor": {"dtype": "DT_INT32", "tensorShape": {}}}}}, {"name": "StatefulPartitionedCall/model_1/yamnet/StatefulPartitionedCall/StatefulPartitionedCall/yamnet_frames/tf_op_layer_Reshape_2/shape/Reshape_2/shape/1", "op": "Const", "input": ["^audio"], "attr": {"value": {"tensor": {"dtype": "DT_INT32", "tensorShape": {}}}, "dtype": {"type": "DT_INT32"}}}, {"name": "StatefulPartitionedCall/model_1/yamnet/StatefulPartitionedCall/StatefulPartitionedCall/yamnet_frames/tf_op_layer_AddV2_2/AddV2_2/y", "op": "Const", "input": ["^audio"], "attr": {"value": {"tensor": {"dtype": "DT_INT32", "tensorShape": {"dim": [{"size": "1"}, {"size": "5"}]}}}, "dtype": {"type": "DT_INT32"}}}, {"name": "StatefulPartitionedCall/model_1/yamnet/StatefulPartitionedCall/StatefulPartitionedCall/yamnet_frames/tf_op_layer_GatherV2/GatherV2/axis", "op": "Const", "input": ["^audio"], "attr": {"value": {"tensor": {"dtype": "DT_INT32", "tensorShape": {}}}, "dtype": {"type": "DT_INT32"}}}, {"name": "StatefulPartitionedCall/model_1/yamnet/StatefulPartitionedCall/StatefulPartitionedCall/yamnet_frames/tf_op_layer_Maximum_2/Maximum_2/x", "op": "Const", "input": ["^audio"], "attr": {"value": {"tensor": {"dtype": "DT_INT32", "tensorShape": {}}}, "dtype": {"type": "DT_INT32"}}}, {"name": "StatefulPartitionedCall/model_1/yamnet/StatefulPartitionedCall/StatefulPartitionedCall/yamnet_frames/tf_op_layer_AddV2_1/AddV2_1/x", "op": "Const", "input": ["^audio"], "attr": {"dtype": {"type": "DT_INT32"}, "value": {"tensor": {"dtype": "DT_INT32", "tensorShape": {}}}}}, {"name": "StatefulPartitionedCall/model_1/yamnet/StatefulPartitionedCall/StatefulPartitionedCall/yamnet_frames/tf_op_layer_Reshape/Reshape/shape", "op": "Const", "input": ["^audio"], "attr": {"value": {"tensor": {"dtype": "DT_INT32", "tensorShape": {"dim": [{}]}}}, "dtype": {"type": "DT_INT32"}}}, {"name": "StatefulPartitionedCall/model_1/yamnet/StatefulPartitionedCall/StatefulPartitionedCall/yamnet_frames/tf_op_layer_Sub_3/Sub_3/y", "op": "Const", "input": ["^audio"], "attr": {"value": {"tensor": {"dtype": "DT_INT32", "tensorShape": {}}}, "dtype": {"type": "DT_INT32"}}}, {"name": "StatefulPartitionedCall/model_1/yamnet/StatefulPartitionedCall/StatefulPartitionedCall/yamnet_frames/tf_op_layer_FloorDiv/FloorDiv/y", "op": "Const", "input": ["^audio"], "attr": {"dtype": {"type": "DT_INT32"}, "value": {"tensor": {"dtype": "DT_INT32", "tensorShape": {}}}}}, {"name": "StatefulPartitionedCall/model_1/yamnet/StatefulPartitionedCall/StatefulPartitionedCall/yamnet_frames/tf_op_layer_concat_2/values_1/Sub_3/y", "op": "Const", "input": ["^audio"], "attr": {"dtype": {"type": "DT_INT32"}, "value": {"tensor": {"dtype": "DT_INT32", "tensorShape": {}}}}}, {"name": "StatefulPartitionedCall/model_1/yamnet/StatefulPartitionedCall/StatefulPartitionedCall/yamnet_frames/tf_op_layer_Pad/paddings/0/Pad/paddings/0/0", "op": "Const", "input": ["^audio"], "attr": {"value": {"tensor": {"dtype": "DT_INT32", "tensorShape": {}}}, "dtype": {"type": "DT_INT32"}}}, {"name": "StatefulPartitionedCall/model_1/yamnet/StatefulPartitionedCall/StatefulPartitionedCall/yamnet_frames/tf_op_layer_Maximum/Maximum/x", "op": "Const", "input": ["^audio"], "attr": {"dtype": {"type": "DT_INT32"}, "value": {"tensor": {"dtype": "DT_INT32", "tensorShape": {}}}}}, {"name": "StatefulPartitionedCall/model_1/yamnet/StatefulPartitionedCall/StatefulPartitionedCall/yamnet_frames/tf_op_layer_Sub/Sub/x", "op": "Const", "input": ["^audio"], "attr": {"dtype": {"type": "DT_INT32"}, "value": {"tensor": {"dtype": "DT_INT32", "tensorShape": {}}}}}, {"name": "StatefulPartitionedCall/model_1/yamnet/StatefulPartitionedCall/StatefulPartitionedCall/yamnet_frames/tf_op_layer_Mul/Mul/x", "op": "Const", "input": ["^audio"], "attr": {"value": {"tensor": {"dtype": "DT_INT32", "tensorShape": {}}}, "dtype": {"type": "DT_INT32"}}}, {"name": "ConstantFolding/StatefulPartitionedCall/model_1/yamnet/StatefulPartitionedCall/StatefulPartitionedCall/yamnet_frames/tf_op_layer_RealDiv/RealDiv_recip", "op": "Const", "input": ["^audio"], "attr": {"dtype": {"type": "DT_FLOAT"}, "value": {"tensor": {"dtype": "DT_FLOAT", "tensorShape": {}}}}}, {"name": "StatefulPartitionedCall/model_1/yamnet/StatefulPartitionedCall/StatefulPartitionedCall/yamnet_frames/tf_op_layer_strided_slice/strided_slice/begin", "op": "Const", "input": ["^audio"], "attr": {"dtype": {"type": "DT_INT32"}, "value": {"tensor": {"dtype": "DT_INT32", "tensorShape": {"dim": [{"size": "1"}]}}}}}, {"name": "StatefulPartitionedCall/model_1/yamnet/StatefulPartitionedCall/StatefulPartitionedCall/yamnet_frames/tf_op_layer_strided_slice/strided_slice/end", "op": "Const", "input": ["^audio"], "attr": {"value": {"tensor": {"dtype": "DT_INT32", "tensorShape": {"dim": [{"size": "1"}]}}}, "dtype": {"type": "DT_INT32"}}}, {"name": "StatefulPartitionedCall/model_1/yamnet/StatefulPartitionedCall/StatefulPartitionedCall/yamnet_frames/tf_op_layer_strided_slice/strided_slice/strides", "op": "Const", "input": ["^audio"], "attr": {"value": {"tensor": {"dtype": "DT_INT32", "tensorShape": {"dim": [{"size": "1"}]}}}, "dtype": {"type": "DT_INT32"}}}, {"name": "StatefulPartitionedCall/model_1/yamnet/StatefulPartitionedCall/StatefulPartitionedCall/yamnet_frames/tf_op_layer_Maximum_1/Sub/x", "op": "Const", "input": ["^audio"], "attr": {"value": {"tensor": {"dtype": "DT_INT32", "tensorShape": {}}}, "dtype": {"type": "DT_INT32"}}}, {"name": "StatefulPartitionedCall/model_1/yamnet/StatefulPartitionedCall/StatefulPartitionedCall/yamnet_frames/tf_op_layer_Sub_1/Sub/x", "op": "Const", "input": ["^audio"], "attr": {"value": {"tensor": {"dtype": "DT_INT32", "tensorShape": {}}}, "dtype": {"type": "DT_INT32"}}}, {"name": "StatefulPartitionedCall/model_1/yamnet/StatefulPartitionedCall/StatefulPartitionedCall/yamnet_frames/tf_op_layer_split/split/size_splits", "op": "Const", "input": ["^audio"], "attr": {"value": {"tensor": {"dtype": "DT_INT32", "tensorShape": {"dim": [{"size": "3"}]}}}, "dtype": {"type": "DT_INT32"}}}, {"name": "StatefulPartitionedCall/model_1/yamnet/StatefulPartitionedCall/StatefulPartitionedCall/yamnet_frames/tf_op_layer_split/split/split_dim", "op": "Const", "input": ["^audio"], "attr": {"value": {"tensor": {"dtype": "DT_INT32", "tensorShape": {}}}, "dtype": {"type": "DT_INT32"}}}, {"name": "StatefulPartitionedCall/model_1/yamnet/StatefulPartitionedCall/StatefulPartitionedCall/yamnet_frames/tf_op_layer_concat_2/concat_2/axis", "op": "Const", "input": ["^audio"], "attr": {"value": {"tensor": {"dtype": "DT_INT32", "tensorShape": {}}}, "dtype": {"type": "DT_INT32"}}}, {"name": "StatefulPartitionedCall/model_1/yamnet/StatefulPartitionedCall/StatefulPartitionedCall/yamnet_frames/tf_op_layer_Mul_3/Mul_3/y", "op": "Const", "input": ["^audio"], "attr": {"dtype": {"type": "DT_FLOAT"}, "value": {"tensor": {"dtype": "DT_FLOAT", "tensorShape": {"dim": [{"size": "400"}]}}}}}, {"name": "StatefulPartitionedCall/model_1/yamnet/StatefulPartitionedCall/StatefulPartitionedCall/yamnet_frames/tf_op_layer_Pad_1/Pad_1/paddings", "op": "Const", "input": ["^audio"], "attr": {"dtype": {"type": "DT_INT32"}, "value": {"tensor": {"dtype": "DT_INT32", "tensorShape": {"dim": [{"size": "2"}, {"size": "2"}]}}}}}, {"name": "StatefulPartitionedCall/model_1/yamnet/StatefulPartitionedCall/StatefulPartitionedCall/yamnet_frames/tf_op_layer_RFFT/RFFT/fft_length", "op": "Const", "input": ["^audio"], "attr": {"value": {"tensor": {"dtype": "DT_INT32", "tensorShape": {"dim": [{"size": "1"}]}}}, "dtype": {"type": "DT_INT32"}}}, {"name": "StatefulPartitionedCall/model_1/yamnet/StatefulPartitionedCall/StatefulPartitionedCall/yamnet_frames/tf_op_layer_MatMul/MatMul/b", "op": "Const", "input": ["^audio"], "attr": {"value": {"tensor": {"dtype": "DT_FLOAT", "tensorShape": {"dim": [{"size": "257"}, {"size": "64"}]}}}, "dtype": {"type": "DT_FLOAT"}}}, {"name": "StatefulPartitionedCall/model_1/yamnet/StatefulPartitionedCall/StatefulPartitionedCall/yamnet_frames/tf_op_layer_AddV2_3/AddV2_3/y", "op": "Const", "input": ["^audio"], "attr": {"dtype": {"type": "DT_FLOAT"}, "value": {"tensor": {"dtype": "DT_FLOAT", "tensorShape": {}}}}}, {"name": "StatefulPartitionedCall/model_1/yamnet/StatefulPartitionedCall/StatefulPartitionedCall/yamnet_frames/tf_op_layer_split_1/split_1/size_splits", "op": "Const", "input": ["^audio"], "attr": {"value": {"tensor": {"dtype": "DT_INT32", "tensorShape": {"dim": [{"size": "3"}]}}}, "dtype": {"type": "DT_INT32"}}}, {"name": "StatefulPartitionedCall/model_1/yamnet/StatefulPartitionedCall/StatefulPartitionedCall/yamnet_frames/tf_op_layer_split_1/split_1/split_dim", "op": "Const", "input": ["^audio"], "attr": {"dtype": {"type": "DT_INT32"}, "value": {"tensor": {"dtype": "DT_INT32", "tensorShape": {}}}}}, {"name": "StatefulPartitionedCall/model_1/yamnet/StatefulPartitionedCall/StatefulPartitionedCall/yamnet_frames/tf_op_layer_concat_5/concat_5/axis", "op": "Const", "input": ["^audio"], "attr": {"value": {"tensor": {"dtype": "DT_INT32", "tensorShape": {}}}, "dtype": {"type": "DT_INT32"}}}, {"name": "StatefulPartitionedCall/model_1/yamnet/StatefulPartitionedCall/StatefulPartitionedCall/yamnet_frames/reshape/strided_slice/stack", "op": "Const", "input": ["^audio"], "attr": {"value": {"tensor": {"dtype": "DT_INT32", "tensorShape": {"dim": [{"size": "1"}]}}}, "dtype": {"type": "DT_INT32"}}}, {"name": "StatefulPartitionedCall/model_1/yamnet/StatefulPartitionedCall/StatefulPartitionedCall/yamnet_frames/reshape/strided_slice/stack_1", "op": "Const", "input": ["^audio"], "attr": {"dtype": {"type": "DT_INT32"}, "value": {"tensor": {"dtype": "DT_INT32", "tensorShape": {"dim": [{"size": "1"}]}}}}}, {"name": "StatefulPartitionedCall/model_1/yamnet/StatefulPartitionedCall/StatefulPartitionedCall/yamnet_frames/reshape/strided_slice/stack_2", "op": "Const", "input": ["^audio"], "attr": {"dtype": {"type": "DT_INT32"}, "value": {"tensor": {"dtype": "DT_INT32", "tensorShape": {"dim": [{"size": "1"}]}}}}}, {"name": "StatefulPartitionedCall/model_1/yamnet/StatefulPartitionedCall/StatefulPartitionedCall/yamnet_frames/reshape/Reshape/shape/1", "op": "Const", "input": ["^audio"], "attr": {"dtype": {"type": "DT_INT32"}, "value": {"tensor": {"dtype": "DT_INT32", "tensorShape": {}}}}}, {"name": "StatefulPartitionedCall/model_1/yamnet/StatefulPartitionedCall/StatefulPartitionedCall/yamnet_frames/reshape/Reshape/shape/2", "op": "Const", "input": ["^audio"], "attr": {"value": {"tensor": {"dtype": "DT_INT32", "tensorShape": {}}}, "dtype": {"type": "DT_INT32"}}}, {"name": "StatefulPartitionedCall/model_1/yamnet/StatefulPartitionedCall/StatefulPartitionedCall/yamnet_frames/reshape/Reshape/shape/3", "op": "Const", "input": ["^audio"], "attr": {"value": {"tensor": {"dtype": "DT_INT32", "tensorShape": {}}}, "dtype": {"type": "DT_INT32"}}}, {"name": "StatefulPartitionedCall/model_1/yamnet/StatefulPartitionedCall/StatefulPartitionedCall/yamnet_frames/global_average_pooling2d/Mean/reduction_indices", "op": "Const", "input": ["^audio"], "attr": {"dtype": {"type": "DT_INT32"}, "value": {"tensor": {"dtype": "DT_INT32", "tensorShape": {"dim": [{"size": "2"}]}}}}}, {"name": "StatefulPartitionedCall/model_1/yamnet/StatefulPartitionedCall/StatefulPartitionedCall/yamnet_frames/tf_op_layer_strided_slice/strided_slice", "op": "StridedSlice", "input": ["StatefulPartitionedCall/model_1/yamnet/StatefulPartitionedCall/StatefulPartitionedCall/yamnet_frames/tf_op_layer_Shape/Shape", "StatefulPartitionedCall/model_1/yamnet/StatefulPartitionedCall/StatefulPartitionedCall/yamnet_frames/tf_op_layer_strided_slice/strided_slice/begin", "StatefulPartitionedCall/model_1/yamnet/StatefulPartitionedCall/StatefulPartitionedCall/yamnet_frames/tf_op_layer_strided_slice/strided_slice/end", "StatefulPartitionedCall/model_1/yamnet/StatefulPartitionedCall/StatefulPartitionedCall/yamnet_frames/tf_op_layer_strided_slice/strided_slice/strides"], "attr": {"shrink_axis_mask": {"i": "1"}, "_cloned": {"b": true}, "Index": {"type": "DT_INT32"}, "begin_mask": {"i": "0"}, "new_axis_mask": {"i": "0"}, "T": {"type": "DT_INT32"}, "ellipsis_mask": {"i": "0"}, "end_mask": {"i": "0"}}}, {"name": "StatefulPartitionedCall/model_1/yamnet/StatefulPartitionedCall/StatefulPartitionedCall/yamnet_frames/tf_op_layer_Sub/Sub", "op": "Sub", "input": ["StatefulPartitionedCall/model_1/yamnet/StatefulPartitionedCall/StatefulPartitionedCall/yamnet_frames/tf_op_layer_Sub/Sub/x", "StatefulPartitionedCall/model_1/yamnet/StatefulPartitionedCall/StatefulPartitionedCall/yamnet_frames/tf_op_layer_strided_slice/strided_slice"], "attr": {"T": {"type": "DT_INT32"}, "_cloned": {"b": true}}}, {"name": "StatefulPartitionedCall/model_1/yamnet/StatefulPartitionedCall/StatefulPartitionedCall/yamnet_frames/tf_op_layer_Maximum_1/Maximum_1", "op": "Maximum", "input": ["StatefulPartitionedCall/model_1/yamnet/StatefulPartitionedCall/StatefulPartitionedCall/yamnet_frames/tf_op_layer_strided_slice/strided_slice", "StatefulPartitionedCall/model_1/yamnet/StatefulPartitionedCall/StatefulPartitionedCall/yamnet_frames/tf_op_layer_Maximum_1/Sub/x"], "attr": {"_cloned": {"b": true}, "T": {"type": "DT_INT32"}}}, {"name": "StatefulPartitionedCall/model_1/yamnet/StatefulPartitionedCall/StatefulPartitionedCall/yamnet_frames/tf_op_layer_Maximum/Maximum", "op": "Maximum", "input": ["StatefulPartitionedCall/model_1/yamnet/StatefulPartitionedCall/StatefulPartitionedCall/yamnet_frames/tf_op_layer_Maximum/Maximum/x", "StatefulPartitionedCall/model_1/yamnet/StatefulPartitionedCall/StatefulPartitionedCall/yamnet_frames/tf_op_layer_Sub/Sub"], "attr": {"_cloned": {"b": true}, "T": {"type": "DT_INT32"}}}, {"name": "StatefulPartitionedCall/model_1/yamnet/StatefulPartitionedCall/StatefulPartitionedCall/yamnet_frames/tf_op_layer_Sub_1/Sub_1", "op": "Sub", "input": ["StatefulPartitionedCall/model_1/yamnet/StatefulPartitionedCall/StatefulPartitionedCall/yamnet_frames/tf_op_layer_Maximum_1/Maximum_1", "StatefulPartitionedCall/model_1/yamnet/StatefulPartitionedCall/StatefulPartitionedCall/yamnet_frames/tf_op_layer_Sub_1/Sub/x"], "attr": {"T": {"type": "DT_INT32"}, "_cloned": {"b": true}}}, {"name": "StatefulPartitionedCall/model_1/yamnet/StatefulPartitionedCall/StatefulPartitionedCall/yamnet_frames/tf_op_layer_Cast/Cast", "op": "Cast", "input": ["StatefulPartitionedCall/model_1/yamnet/StatefulPartitionedCall/StatefulPartitionedCall/yamnet_frames/tf_op_layer_Sub_1/Sub_1"], "attr": {"Truncate": {"b": false}, "_cloned": {"b": true}, "SrcT": {"type": "DT_INT32"}, "DstT": {"type": "DT_FLOAT"}}}, {"name": "StatefulPartitionedCall/model_1/yamnet/StatefulPartitionedCall/StatefulPartitionedCall/yamnet_frames/tf_op_layer_RealDiv/RealDiv", "op": "Mul", "input": ["StatefulPartitionedCall/model_1/yamnet/StatefulPartitionedCall/StatefulPartitionedCall/yamnet_frames/tf_op_layer_Cast/Cast", "ConstantFolding/StatefulPartitionedCall/model_1/yamnet/StatefulPartitionedCall/StatefulPartitionedCall/yamnet_frames/tf_op_layer_RealDiv/RealDiv_recip"], "attr": {"T": {"type": "DT_FLOAT"}, "_cloned": {"b": true}}}, {"name": "StatefulPartitionedCall/model_1/yamnet/StatefulPartitionedCall/StatefulPartitionedCall/yamnet_frames/tf_op_layer_Ceil/Ceil", "op": "Ceil", "input": ["StatefulPartitionedCall/model_1/yamnet/StatefulPartitionedCall/StatefulPartitionedCall/yamnet_frames/tf_op_layer_RealDiv/RealDiv"], "attr": {"_cloned": {"b": true}, "T": {"type": "DT_FLOAT"}}}, {"name": "StatefulPartitionedCall/model_1/yamnet/StatefulPartitionedCall/StatefulPartitionedCall/yamnet_frames/tf_op_layer_Cast_1/Cast_1", "op": "Cast", "input": ["StatefulPartitionedCall/model_1/yamnet/StatefulPartitionedCall/StatefulPartitionedCall/yamnet_frames/tf_op_layer_Ceil/Ceil"], "attr": {"Truncate": {"b": false}, "_cloned": {"b": true}, "SrcT": {"type": "DT_FLOAT"}, "DstT": {"type": "DT_INT32"}}}, {"name": "StatefulPartitionedCall/model_1/yamnet/StatefulPartitionedCall/StatefulPartitionedCall/yamnet_frames/tf_op_layer_Mul/Mul", "op": "Mul", "input": ["StatefulPartitionedCall/model_1/yamnet/StatefulPartitionedCall/StatefulPartitionedCall/yamnet_frames/tf_op_layer_Mul/Mul/x", "StatefulPartitionedCall/model_1/yamnet/StatefulPartitionedCall/StatefulPartitionedCall/yamnet_frames/tf_op_layer_Cast_1/Cast_1"], "attr": {"_cloned": {"b": true}, "T": {"type": "DT_INT32"}}}, {"name": "StatefulPartitionedCall/model_1/yamnet/StatefulPartitionedCall/StatefulPartitionedCall/yamnet_frames/tf_op_layer_Sub_2/Sub_2", "op": "Sub", "input": ["StatefulPartitionedCall/model_1/yamnet/StatefulPartitionedCall/StatefulPartitionedCall/yamnet_frames/tf_op_layer_Mul/Mul", "StatefulPartitionedCall/model_1/yamnet/StatefulPartitionedCall/StatefulPartitionedCall/yamnet_frames/tf_op_layer_Sub_1/Sub_1"], "attr": {"T": {"type": "DT_INT32"}, "_cloned": {"b": true}}}, {"name": "StatefulPartitionedCall/model_1/yamnet/StatefulPartitionedCall/StatefulPartitionedCall/yamnet_frames/tf_op_layer_AddV2/AddV2", "op": "AddV2", "input": ["StatefulPartitionedCall/model_1/yamnet/StatefulPartitionedCall/StatefulPartitionedCall/yamnet_frames/tf_op_layer_Maximum/Maximum", "StatefulPartitionedCall/model_1/yamnet/StatefulPartitionedCall/StatefulPartitionedCall/yamnet_frames/tf_op_layer_Sub_2/Sub_2"], "attr": {"_cloned": {"b": true}, "T": {"type": "DT_INT32"}}}, {"name": "StatefulPartitionedCall/model_1/yamnet/StatefulPartitionedCall/StatefulPartitionedCall/yamnet_frames/tf_op_layer_Pad/paddings/0/Pad/paddings/0", "op": "Pack", "input": ["StatefulPartitionedCall/model_1/yamnet/StatefulPartitionedCall/StatefulPartitionedCall/yamnet_frames/tf_op_layer_Pad/paddings/0/Pad/paddings/0/0", "StatefulPartitionedCall/model_1/yamnet/StatefulPartitionedCall/StatefulPartitionedCall/yamnet_frames/tf_op_layer_AddV2/AddV2"], "attr": {"N": {"i": "2"}, "axis": {"i": "0"}, "_cloned": {"b": true}, "T": {"type": "DT_INT32"}}}, {"name": "ConstantFolding/StatefulPartitionedCall/model_1/yamnet/StatefulPartitionedCall/StatefulPartitionedCall/yamnet_frames/tf_op_layer_Pad/paddings/Pad/paddings_const_axis", "op": "Const", "input": ["^StatefulPartitionedCall/model_1/yamnet/StatefulPartitionedCall/StatefulPartitionedCall/yamnet_frames/tf_op_layer_Pad/paddings/0/Pad/paddings/0"], "attr": {"value": {"tensor": {"dtype": "DT_INT32", "tensorShape": {}}}, "dtype": {"type": "DT_INT32"}}}, {"name": "StatefulPartitionedCall/model_1/yamnet/StatefulPartitionedCall/StatefulPartitionedCall/yamnet_frames/tf_op_layer_Pad/paddings/Pad/paddings", "op": "ExpandDims", "input": ["StatefulPartitionedCall/model_1/yamnet/StatefulPartitionedCall/StatefulPartitionedCall/yamnet_frames/tf_op_layer_Pad/paddings/0/Pad/paddings/0", "ConstantFolding/StatefulPartitionedCall/model_1/yamnet/StatefulPartitionedCall/StatefulPartitionedCall/yamnet_frames/tf_op_layer_Pad/paddings/Pad/paddings_const_axis"], "attr": {"_cloned": {"b": true}, "T": {"type": "DT_INT32"}, "Tdim": {"type": "DT_INT32"}}}, {"name": "StatefulPartitionedCall/model_1/yamnet/StatefulPartitionedCall/StatefulPartitionedCall/yamnet_frames/tf_op_layer_Pad/Pad", "op": "Pad", "input": ["audio", "StatefulPartitionedCall/model_1/yamnet/StatefulPartitionedCall/StatefulPartitionedCall/yamnet_frames/tf_op_layer_Pad/paddings/Pad/paddings"], "attr": {"_cloned": {"b": true}, "Tpaddings": {"type": "DT_INT32"}, "T": {"type": "DT_FLOAT"}}}, {"name": "StatefulPartitionedCall/model_1/yamnet/StatefulPartitionedCall/StatefulPartitionedCall/yamnet_frames/tf_op_layer_Shape_1/Shape_1", "op": "Shape", "input": ["StatefulPartitionedCall/model_1/yamnet/StatefulPartitionedCall/StatefulPartitionedCall/yamnet_frames/tf_op_layer_Pad/Pad"], "attr": {"_cloned": {"b": true}, "T": {"type": "DT_FLOAT"}, "out_type": {"type": "DT_INT32"}}}, {"name": "StatefulPartitionedCall/model_1/yamnet/StatefulPartitionedCall/StatefulPartitionedCall/yamnet_frames/tf_op_layer_ZerosLike/ZerosLike", "op": "Const", "input": ["^StatefulPartitionedCall/model_1/yamnet/StatefulPartitionedCall/StatefulPartitionedCall/yamnet_frames/tf_op_layer_Shape_1/Shape_1"], "attr": {"value": {"tensor": {"dtype": "DT_INT32", "tensorShape": {"dim": [{"size": "1"}]}}}, "_cloned": {"b": true}, "dtype": {"type": "DT_INT32"}}}, {"name": "StatefulPartitionedCall/model_1/yamnet/StatefulPartitionedCall/StatefulPartitionedCall/yamnet_frames/tf_op_layer_split/split", "op": "SplitV", "input": ["StatefulPartitionedCall/model_1/yamnet/StatefulPartitionedCall/StatefulPartitionedCall/yamnet_frames/tf_op_layer_Shape_1/Shape_1", "StatefulPartitionedCall/model_1/yamnet/StatefulPartitionedCall/StatefulPartitionedCall/yamnet_frames/tf_op_layer_split/split/size_splits", "StatefulPartitionedCall/model_1/yamnet/StatefulPartitionedCall/StatefulPartitionedCall/yamnet_frames/tf_op_layer_split/split/split_dim"], "attr": {"num_split": {"i": "3"}, "Tlen": {"type": "DT_INT32"}, "_cloned": {"b": true}, "T": {"type": "DT_INT32"}}}, {"name": "StatefulPartitionedCall/model_1/yamnet/StatefulPartitionedCall/StatefulPartitionedCall/yamnet_frames/tf_op_layer_Fill/Fill", "op": "Const", "input": ["^StatefulPartitionedCall/model_1/yamnet/StatefulPartitionedCall/StatefulPartitionedCall/yamnet_frames/tf_op_layer_ZerosLike/ZerosLike"], "attr": {"_cloned": {"b": true}, "value": {"tensor": {"dtype": "DT_INT32", "tensorShape": {"dim": [{"size": "1"}]}}}, "dtype": {"type": "DT_INT32"}}}, {"name": "StatefulPartitionedCall/model_1/yamnet/StatefulPartitionedCall/StatefulPartitionedCall/yamnet_frames/tf_op_layer_Reshape/Reshape", "op": "Reshape", "input": ["StatefulPartitionedCall/model_1/yamnet/StatefulPartitionedCall/StatefulPartitionedCall/yamnet_frames/tf_op_layer_split/split:1", "StatefulPartitionedCall/model_1/yamnet/StatefulPartitionedCall/StatefulPartitionedCall/yamnet_frames/tf_op_layer_Reshape/Reshape/shape"], "attr": {"Tshape": {"type": "DT_INT32"}, "T": {"type": "DT_INT32"}, "_cloned": {"b": true}}}, {"name": "StatefulPartitionedCall/model_1/yamnet/StatefulPartitionedCall/StatefulPartitionedCall/yamnet_frames/tf_op_layer_FloorDiv_1/FloorDiv_1", "op": "FloorDiv", "input": ["StatefulPartitionedCall/model_1/yamnet/StatefulPartitionedCall/StatefulPartitionedCall/yamnet_frames/tf_op_layer_Reshape/Reshape", "StatefulPartitionedCall/model_1/yamnet/StatefulPartitionedCall/StatefulPartitionedCall/yamnet_frames/tf_op_layer_FloorDiv_1/FloorDiv_1/y"], "attr": {"T": {"type": "DT_INT32"}, "_cloned": {"b": true}}}, {"name": "StatefulPartitionedCall/model_1/yamnet/StatefulPartitionedCall/StatefulPartitionedCall/yamnet_frames/tf_op_layer_Sub_3/Sub_3", "op": "Sub", "input": ["StatefulPartitionedCall/model_1/yamnet/StatefulPartitionedCall/StatefulPartitionedCall/yamnet_frames/tf_op_layer_Reshape/Reshape", "StatefulPartitionedCall/model_1/yamnet/StatefulPartitionedCall/StatefulPartitionedCall/yamnet_frames/tf_op_layer_Sub_3/Sub_3/y"], "attr": {"_cloned": {"b": true}, "T": {"type": "DT_INT32"}}}, {"name": "StatefulPartitionedCall/model_1/yamnet/StatefulPartitionedCall/StatefulPartitionedCall/yamnet_frames/tf_op_layer_Mul_1/Mul_1", "op": "Mul", "input": ["StatefulPartitionedCall/model_1/yamnet/StatefulPartitionedCall/StatefulPartitionedCall/yamnet_frames/tf_op_layer_FloorDiv_1/FloorDiv_1", "StatefulPartitionedCall/model_1/yamnet/StatefulPartitionedCall/StatefulPartitionedCall/yamnet_frames/tf_op_layer_Mul_1/Mul_1/y"], "attr": {"T": {"type": "DT_INT32"}, "_cloned": {"b": true}}}, {"name": "StatefulPartitionedCall/model_1/yamnet/StatefulPartitionedCall/StatefulPartitionedCall/yamnet_frames/tf_op_layer_concat_1/values_1/concat_1/values_1", "op": "Pack", "input": ["StatefulPartitionedCall/model_1/yamnet/StatefulPartitionedCall/StatefulPartitionedCall/yamnet_frames/tf_op_layer_FloorDiv_1/FloorDiv_1", "StatefulPartitionedCall/model_1/yamnet/StatefulPartitionedCall/StatefulPartitionedCall/yamnet_frames/tf_op_layer_concat_1/values_1/concat_1/values_1/1"], "attr": {"_cloned": {"b": true}, "axis": {"i": "0"}, "N": {"i": "2"}, "T": {"type": "DT_INT32"}}}, {"name": "StatefulPartitionedCall/model_1/yamnet/StatefulPartitionedCall/StatefulPartitionedCall/yamnet_frames/tf_op_layer_FloorDiv/FloorDiv", "op": "FloorDiv", "input": ["StatefulPartitionedCall/model_1/yamnet/StatefulPartitionedCall/StatefulPartitionedCall/yamnet_frames/tf_op_layer_Sub_3/Sub_3", "StatefulPartitionedCall/model_1/yamnet/StatefulPartitionedCall/StatefulPartitionedCall/yamnet_frames/tf_op_layer_FloorDiv/FloorDiv/y"], "attr": {"_cloned": {"b": true}, "T": {"type": "DT_INT32"}}}, {"name": "ConstantFolding/StatefulPartitionedCall/model_1/yamnet/StatefulPartitionedCall/StatefulPartitionedCall/yamnet_frames/tf_op_layer_concat/values_1/concat/values_1_const_axis", "op": "Const", "input": ["^StatefulPartitionedCall/model_1/yamnet/StatefulPartitionedCall/StatefulPartitionedCall/yamnet_frames/tf_op_layer_Mul_1/Mul_1"], "attr": {"value": {"tensor": {"dtype": "DT_INT32", "tensorShape": {}}}, "dtype": {"type": "DT_INT32"}}}, {"name": "StatefulPartitionedCall/model_1/yamnet/StatefulPartitionedCall/StatefulPartitionedCall/yamnet_frames/tf_op_layer_concat_1/concat_1", "op": "ConcatV2", "input": ["StatefulPartitionedCall/model_1/yamnet/StatefulPartitionedCall/StatefulPartitionedCall/yamnet_frames/tf_op_layer_split/split", "StatefulPartitionedCall/model_1/yamnet/StatefulPartitionedCall/StatefulPartitionedCall/yamnet_frames/tf_op_layer_concat_1/values_1/concat_1/values_1", "StatefulPartitionedCall/model_1/yamnet/StatefulPartitionedCall/StatefulPartitionedCall/yamnet_frames/tf_op_layer_split/split:2", "StatefulPartitionedCall/model_1/yamnet/StatefulPartitionedCall/StatefulPartitionedCall/yamnet_frames/tf_op_layer_concat_1/concat_1/axis"], "attr": {"T": {"type": "DT_INT32"}, "Tidx": {"type": "DT_INT32"}, "_cloned": {"b": true}, "N": {"i": "3"}}}, {"name": "StatefulPartitionedCall/model_1/yamnet/StatefulPartitionedCall/StatefulPartitionedCall/yamnet_frames/tf_op_layer_AddV2_1/AddV2_1", "op": "AddV2", "input": ["StatefulPartitionedCall/model_1/yamnet/StatefulPartitionedCall/StatefulPartitionedCall/yamnet_frames/tf_op_layer_AddV2_1/AddV2_1/x", "StatefulPartitionedCall/model_1/yamnet/StatefulPartitionedCall/StatefulPartitionedCall/yamnet_frames/tf_op_layer_FloorDiv/FloorDiv"], "attr": {"_cloned": {"b": true}, "T": {"type": "DT_INT32"}}}, {"name": "StatefulPartitionedCall/model_1/yamnet/StatefulPartitionedCall/StatefulPartitionedCall/yamnet_frames/tf_op_layer_concat/values_1/concat/values_1", "op": "ExpandDims", "input": ["StatefulPartitionedCall/model_1/yamnet/StatefulPartitionedCall/StatefulPartitionedCall/yamnet_frames/tf_op_layer_Mul_1/Mul_1", "ConstantFolding/StatefulPartitionedCall/model_1/yamnet/StatefulPartitionedCall/StatefulPartitionedCall/yamnet_frames/tf_op_layer_concat/values_1/concat/values_1_const_axis"], "attr": {"T": {"type": "DT_INT32"}, "_cloned": {"b": true}, "Tdim": {"type": "DT_INT32"}}}, {"name": "StatefulPartitionedCall/model_1/yamnet/StatefulPartitionedCall/StatefulPartitionedCall/yamnet_frames/tf_op_layer_Maximum_2/Maximum_2", "op": "Maximum", "input": ["StatefulPartitionedCall/model_1/yamnet/StatefulPartitionedCall/StatefulPartitionedCall/yamnet_frames/tf_op_layer_Maximum_2/Maximum_2/x", "StatefulPartitionedCall/model_1/yamnet/StatefulPartitionedCall/StatefulPartitionedCall/yamnet_frames/tf_op_layer_AddV2_1/AddV2_1"], "attr": {"T": {"type": "DT_INT32"}, "_cloned": {"b": true}}}, {"name": "StatefulPartitionedCall/model_1/yamnet/StatefulPartitionedCall/StatefulPartitionedCall/yamnet_frames/tf_op_layer_concat/concat", "op": "ConcatV2", "input": ["StatefulPartitionedCall/model_1/yamnet/StatefulPartitionedCall/StatefulPartitionedCall/yamnet_frames/tf_op_layer_split/split", "StatefulPartitionedCall/model_1/yamnet/StatefulPartitionedCall/StatefulPartitionedCall/yamnet_frames/tf_op_layer_concat/values_1/concat/values_1", "StatefulPartitionedCall/model_1/yamnet/StatefulPartitionedCall/StatefulPartitionedCall/yamnet_frames/tf_op_layer_split/split:2", "StatefulPartitionedCall/model_1/yamnet/StatefulPartitionedCall/StatefulPartitionedCall/yamnet_frames/tf_op_layer_concat/concat/axis"], "attr": {"N": {"i": "3"}, "Tidx": {"type": "DT_INT32"}, "_cloned": {"b": true}, "T": {"type": "DT_INT32"}}}, {"name": "StatefulPartitionedCall/model_1/yamnet/StatefulPartitionedCall/StatefulPartitionedCall/yamnet_frames/tf_op_layer_Range/Range", "op": "Range", "input": ["StatefulPartitionedCall/model_1/yamnet/StatefulPartitionedCall/StatefulPartitionedCall/yamnet_frames/tf_op_layer_Range/Range/start", "StatefulPartitionedCall/model_1/yamnet/StatefulPartitionedCall/StatefulPartitionedCall/yamnet_frames/tf_op_layer_Maximum_2/Maximum_2", "StatefulPartitionedCall/model_1/yamnet/StatefulPartitionedCall/StatefulPartitionedCall/yamnet_frames/tf_op_layer_Range/Range/delta"], "attr": {"Tidx": {"type": "DT_INT32"}, "_cloned": {"b": true}}}, {"name": "StatefulPartitionedCall/model_1/yamnet/StatefulPartitionedCall/StatefulPartitionedCall/yamnet_frames/tf_op_layer_Reshape_2/shape/Reshape_2/shape", "op": "Pack", "input": ["StatefulPartitionedCall/model_1/yamnet/StatefulPartitionedCall/StatefulPartitionedCall/yamnet_frames/tf_op_layer_Maximum_2/Maximum_2", "StatefulPartitionedCall/model_1/yamnet/StatefulPartitionedCall/StatefulPartitionedCall/yamnet_frames/tf_op_layer_Reshape_2/shape/Reshape_2/shape/1"], "attr": {"T": {"type": "DT_INT32"}, "_cloned": {"b": true}, "axis": {"i": "0"}, "N": {"i": "2"}}}, {"name": "StatefulPartitionedCall/model_1/yamnet/StatefulPartitionedCall/StatefulPartitionedCall/yamnet_frames/tf_op_layer_concat_2/values_1/concat_2/values_1", "op": "Pack", "input": ["StatefulPartitionedCall/model_1/yamnet/StatefulPartitionedCall/StatefulPartitionedCall/yamnet_frames/tf_op_layer_Maximum_2/Maximum_2", "StatefulPartitionedCall/model_1/yamnet/StatefulPartitionedCall/StatefulPartitionedCall/yamnet_frames/tf_op_layer_concat_2/values_1/Sub_3/y"], "attr": {"T": {"type": "DT_INT32"}, "axis": {"i": "0"}, "N": {"i": "2"}, "_cloned": {"b": true}}}, {"name": "StatefulPartitionedCall/model_1/yamnet/StatefulPartitionedCall/StatefulPartitionedCall/yamnet_frames/tf_op_layer_StridedSlice/StridedSlice", "op": "StridedSlice", "input": ["StatefulPartitionedCall/model_1/yamnet/StatefulPartitionedCall/StatefulPartitionedCall/yamnet_frames/tf_op_layer_Pad/Pad", "StatefulPartitionedCall/model_1/yamnet/StatefulPartitionedCall/StatefulPartitionedCall/yamnet_frames/tf_op_layer_ZerosLike/ZerosLike", "StatefulPartitionedCall/model_1/yamnet/StatefulPartitionedCall/StatefulPartitionedCall/yamnet_frames/tf_op_layer_concat/concat", "StatefulPartitionedCall/model_1/yamnet/StatefulPartitionedCall/StatefulPartitionedCall/yamnet_frames/tf_op_layer_Fill/Fill"], "attr": {"end_mask": {"i": "0"}, "Index": {"type": "DT_INT32"}, "_cloned": {"b": true}, "begin_mask": {"i": "0"}, "T": {"type": "DT_FLOAT"}, "new_axis_mask": {"i": "0"}, "ellipsis_mask": {"i": "0"}, "shrink_axis_mask": {"i": "0"}}}, {"name": "StatefulPartitionedCall/model_1/yamnet/StatefulPartitionedCall/StatefulPartitionedCall/yamnet_frames/tf_op_layer_Mul_2/Mul_2", "op": "Mul", "input": ["StatefulPartitionedCall/model_1/yamnet/StatefulPartitionedCall/StatefulPartitionedCall/yamnet_frames/tf_op_layer_Range/Range", "StatefulPartitionedCall/model_1/yamnet/StatefulPartitionedCall/StatefulPartitionedCall/yamnet_frames/tf_op_layer_Mul_2/Mul_2/y"], "attr": {"_cloned": {"b": true}, "T": {"type": "DT_INT32"}}}, {"name": "StatefulPartitionedCall/model_1/yamnet/StatefulPartitionedCall/StatefulPartitionedCall/yamnet_frames/tf_op_layer_concat_2/concat_2", "op": "ConcatV2", "input": ["StatefulPartitionedCall/model_1/yamnet/StatefulPartitionedCall/StatefulPartitionedCall/yamnet_frames/tf_op_layer_split/split", "StatefulPartitionedCall/model_1/yamnet/StatefulPartitionedCall/StatefulPartitionedCall/yamnet_frames/tf_op_layer_concat_2/values_1/concat_2/values_1", "StatefulPartitionedCall/model_1/yamnet/StatefulPartitionedCall/StatefulPartitionedCall/yamnet_frames/tf_op_layer_split/split:2", "StatefulPartitionedCall/model_1/yamnet/StatefulPartitionedCall/StatefulPartitionedCall/yamnet_frames/tf_op_layer_concat_2/concat_2/axis"], "attr": {"Tidx": {"type": "DT_INT32"}, "_cloned": {"b": true}, "T": {"type": "DT_INT32"}, "N": {"i": "3"}}}, {"name": "StatefulPartitionedCall/model_1/yamnet/StatefulPartitionedCall/StatefulPartitionedCall/yamnet_frames/tf_op_layer_Reshape_1/Reshape_1", "op": "Reshape", "input": ["StatefulPartitionedCall/model_1/yamnet/StatefulPartitionedCall/StatefulPartitionedCall/yamnet_frames/tf_op_layer_StridedSlice/StridedSlice", "StatefulPartitionedCall/model_1/yamnet/StatefulPartitionedCall/StatefulPartitionedCall/yamnet_frames/tf_op_layer_concat_1/concat_1"], "attr": {"T": {"type": "DT_FLOAT"}, "_cloned": {"b": true}, "Tshape": {"type": "DT_INT32"}}}, {"name": "StatefulPartitionedCall/model_1/yamnet/StatefulPartitionedCall/StatefulPartitionedCall/yamnet_frames/tf_op_layer_Reshape_2/Reshape_2", "op": "Reshape", "input": ["StatefulPartitionedCall/model_1/yamnet/StatefulPartitionedCall/StatefulPartitionedCall/yamnet_frames/tf_op_layer_Mul_2/Mul_2", "StatefulPartitionedCall/model_1/yamnet/StatefulPartitionedCall/StatefulPartitionedCall/yamnet_frames/tf_op_layer_Reshape_2/shape/Reshape_2/shape"], "attr": {"Tshape": {"type": "DT_INT32"}, "_cloned": {"b": true}, "T": {"type": "DT_INT32"}}}, {"name": "StatefulPartitionedCall/model_1/yamnet/StatefulPartitionedCall/StatefulPartitionedCall/yamnet_frames/tf_op_layer_AddV2_2/AddV2_2", "op": "AddV2", "input": ["StatefulPartitionedCall/model_1/yamnet/StatefulPartitionedCall/StatefulPartitionedCall/yamnet_frames/tf_op_layer_Reshape_2/Reshape_2", "StatefulPartitionedCall/model_1/yamnet/StatefulPartitionedCall/StatefulPartitionedCall/yamnet_frames/tf_op_layer_AddV2_2/AddV2_2/y"], "attr": {"T": {"type": "DT_INT32"}, "_cloned": {"b": true}}}, {"name": "StatefulPartitionedCall/model_1/yamnet/StatefulPartitionedCall/StatefulPartitionedCall/yamnet_frames/tf_op_layer_GatherV2/GatherV2", "op": "GatherV2", "input": ["StatefulPartitionedCall/model_1/yamnet/StatefulPartitionedCall/StatefulPartitionedCall/yamnet_frames/tf_op_layer_Reshape_1/Reshape_1", "StatefulPartitionedCall/model_1/yamnet/StatefulPartitionedCall/StatefulPartitionedCall/yamnet_frames/tf_op_layer_AddV2_2/AddV2_2", "StatefulPartitionedCall/model_1/yamnet/StatefulPartitionedCall/StatefulPartitionedCall/yamnet_frames/tf_op_layer_GatherV2/GatherV2/axis"], "attr": {"Taxis": {"type": "DT_INT32"}, "_cloned": {"b": true}, "Tparams": {"type": "DT_FLOAT"}, "Tindices": {"type": "DT_INT32"}, "batch_dims": {"i": "0"}}}, {"name": "StatefulPartitionedCall/model_1/yamnet/StatefulPartitionedCall/StatefulPartitionedCall/yamnet_frames/tf_op_layer_Reshape_3/Reshape_3", "op": "Reshape", "input": ["StatefulPartitionedCall/model_1/yamnet/StatefulPartitionedCall/StatefulPartitionedCall/yamnet_frames/tf_op_layer_GatherV2/GatherV2", "StatefulPartitionedCall/model_1/yamnet/StatefulPartitionedCall/StatefulPartitionedCall/yamnet_frames/tf_op_layer_concat_2/concat_2"], "attr": {"T": {"type": "DT_FLOAT"}, "Tshape": {"type": "DT_INT32"}, "_cloned": {"b": true}}}, {"name": "StatefulPartitionedCall/model_1/yamnet/StatefulPartitionedCall/StatefulPartitionedCall/yamnet_frames/tf_op_layer_Mul_3/Mul_3", "op": "Mul", "input": ["StatefulPartitionedCall/model_1/yamnet/StatefulPartitionedCall/StatefulPartitionedCall/yamnet_frames/tf_op_layer_Reshape_3/Reshape_3", "StatefulPartitionedCall/model_1/yamnet/StatefulPartitionedCall/StatefulPartitionedCall/yamnet_frames/tf_op_layer_Mul_3/Mul_3/y"], "attr": {"_cloned": {"b": true}, "T": {"type": "DT_FLOAT"}}}, {"name": "StatefulPartitionedCall/model_1/yamnet/StatefulPartitionedCall/StatefulPartitionedCall/yamnet_frames/tf_op_layer_Pad_1/Pad_1", "op": "Pad", "input": ["StatefulPartitionedCall/model_1/yamnet/StatefulPartitionedCall/StatefulPartitionedCall/yamnet_frames/tf_op_layer_Mul_3/Mul_3", "StatefulPartitionedCall/model_1/yamnet/StatefulPartitionedCall/StatefulPartitionedCall/yamnet_frames/tf_op_layer_Pad_1/Pad_1/paddings"], "attr": {"Tpaddings": {"type": "DT_INT32"}, "T": {"type": "DT_FLOAT"}, "_cloned": {"b": true}}}, {"name": "StatefulPartitionedCall/model_1/yamnet/StatefulPartitionedCall/StatefulPartitionedCall/yamnet_frames/tf_op_layer_RFFT/RFFT", "op": "RFFT", "input": ["StatefulPartitionedCall/model_1/yamnet/StatefulPartitionedCall/StatefulPartitionedCall/yamnet_frames/tf_op_layer_Pad_1/Pad_1", "StatefulPartitionedCall/model_1/yamnet/StatefulPartitionedCall/StatefulPartitionedCall/yamnet_frames/tf_op_layer_RFFT/RFFT/fft_length"], "attr": {"_cloned": {"b": true}, "Treal": {"type": "DT_FLOAT"}, "Tcomplex": {"type": "DT_COMPLEX64"}}}, {"name": "StatefulPartitionedCall/model_1/yamnet/StatefulPartitionedCall/StatefulPartitionedCall/yamnet_frames/tf_op_layer_ComplexAbs/ComplexAbs", "op": "ComplexAbs", "input": ["StatefulPartitionedCall/model_1/yamnet/StatefulPartitionedCall/StatefulPartitionedCall/yamnet_frames/tf_op_layer_RFFT/RFFT"], "attr": {"_cloned": {"b": true}, "T": {"type": "DT_COMPLEX64"}, "Tout": {"type": "DT_FLOAT"}}}, {"name": "StatefulPartitionedCall/model_1/yamnet/StatefulPartitionedCall/StatefulPartitionedCall/yamnet_frames/tf_op_layer_MatMul/MatMul", "op": "MatMul", "input": ["StatefulPartitionedCall/model_1/yamnet/StatefulPartitionedCall/StatefulPartitionedCall/yamnet_frames/tf_op_layer_ComplexAbs/ComplexAbs", "StatefulPartitionedCall/model_1/yamnet/StatefulPartitionedCall/StatefulPartitionedCall/yamnet_frames/tf_op_layer_MatMul/MatMul/b"], "device": "/device:CPU:0", "attr": {"T": {"type": "DT_FLOAT"}, "_cloned": {"b": true}, "transpose_b": {"b": false}, "transpose_a": {"b": false}}}, {"name": "StatefulPartitionedCall/model_1/yamnet/StatefulPartitionedCall/StatefulPartitionedCall/yamnet_frames/tf_op_layer_AddV2_3/AddV2_3", "op": "AddV2", "input": ["StatefulPartitionedCall/model_1/yamnet/StatefulPartitionedCall/StatefulPartitionedCall/yamnet_frames/tf_op_layer_MatMul/MatMul", "StatefulPartitionedCall/model_1/yamnet/StatefulPartitionedCall/StatefulPartitionedCall/yamnet_frames/tf_op_layer_AddV2_3/AddV2_3/y"], "attr": {"_cloned": {"b": true}, "T": {"type": "DT_FLOAT"}}}, {"name": "StatefulPartitionedCall/model_1/yamnet/StatefulPartitionedCall/StatefulPartitionedCall/yamnet_frames/tf_op_layer_Log/Log", "op": "Log", "input": ["StatefulPartitionedCall/model_1/yamnet/StatefulPartitionedCall/StatefulPartitionedCall/yamnet_frames/tf_op_layer_AddV2_3/AddV2_3"], "attr": {"_cloned": {"b": true}, "T": {"type": "DT_FLOAT"}}}, {"name": "StatefulPartitionedCall/model_1/yamnet/StatefulPartitionedCall/StatefulPartitionedCall/yamnet_frames/tf_op_layer_Shape_3/Shape_3", "op": "Shape", "input": ["StatefulPartitionedCall/model_1/yamnet/StatefulPartitionedCall/StatefulPartitionedCall/yamnet_frames/tf_op_layer_Log/Log"], "attr": {"_cloned": {"b": true}, "T": {"type": "DT_FLOAT"}, "out_type": {"type": "DT_INT32"}}}, {"name": "StatefulPartitionedCall/model_1/yamnet/StatefulPartitionedCall/StatefulPartitionedCall/yamnet_frames/tf_op_layer_ZerosLike_1/ZerosLike_1", "op": "Const", "input": ["^StatefulPartitionedCall/model_1/yamnet/StatefulPartitionedCall/StatefulPartitionedCall/yamnet_frames/tf_op_layer_Shape_3/Shape_3"], "attr": {"dtype": {"type": "DT_INT32"}, "value": {"tensor": {"dtype": "DT_INT32", "tensorShape": {"dim": [{"size": "2"}]}}}, "_cloned": {"b": true}}}, {"name": "StatefulPartitionedCall/model_1/yamnet/StatefulPartitionedCall/StatefulPartitionedCall/yamnet_frames/tf_op_layer_split_1/split_1", "op": "SplitV", "input": ["StatefulPartitionedCall/model_1/yamnet/StatefulPartitionedCall/StatefulPartitionedCall/yamnet_frames/tf_op_layer_Shape_3/Shape_3", "StatefulPartitionedCall/model_1/yamnet/StatefulPartitionedCall/StatefulPartitionedCall/yamnet_frames/tf_op_layer_split_1/split_1/size_splits", "StatefulPartitionedCall/model_1/yamnet/StatefulPartitionedCall/StatefulPartitionedCall/yamnet_frames/tf_op_layer_split_1/split_1/split_dim"], "attr": {"Tlen": {"type": "DT_INT32"}, "T": {"type": "DT_INT32"}, "num_split": {"i": "3"}, "_cloned": {"b": true}}}, {"name": "StatefulPartitionedCall/model_1/yamnet/StatefulPartitionedCall/StatefulPartitionedCall/yamnet_frames/tf_op_layer_Fill_1/Fill_1", "op": "Const", "input": ["^StatefulPartitionedCall/model_1/yamnet/StatefulPartitionedCall/StatefulPartitionedCall/yamnet_frames/tf_op_layer_ZerosLike_1/ZerosLike_1"], "attr": {"_cloned": {"b": true}, "dtype": {"type": "DT_INT32"}, "value": {"tensor": {"dtype": "DT_INT32", "tensorShape": {"dim": [{"size": "2"}]}}}}}, {"name": "StatefulPartitionedCall/model_1/yamnet/StatefulPartitionedCall/StatefulPartitionedCall/yamnet_frames/tf_op_layer_Reshape_4/Reshape_4", "op": "Reshape", "input": ["StatefulPartitionedCall/model_1/yamnet/StatefulPartitionedCall/StatefulPartitionedCall/yamnet_frames/tf_op_layer_split_1/split_1:1", "StatefulPartitionedCall/model_1/yamnet/StatefulPartitionedCall/StatefulPartitionedCall/yamnet_frames/tf_op_layer_Reshape_4/Reshape_4/shape"], "attr": {"_cloned": {"b": true}, "T": {"type": "DT_INT32"}, "Tshape": {"type": "DT_INT32"}}}, {"name": "StatefulPartitionedCall/model_1/yamnet/StatefulPartitionedCall/StatefulPartitionedCall/yamnet_frames/tf_op_layer_FloorDiv_3/FloorDiv_3", "op": "FloorDiv", "input": ["StatefulPartitionedCall/model_1/yamnet/StatefulPartitionedCall/StatefulPartitionedCall/yamnet_frames/tf_op_layer_Reshape_4/Reshape_4", "StatefulPartitionedCall/model_1/yamnet/StatefulPartitionedCall/StatefulPartitionedCall/yamnet_frames/tf_op_layer_FloorDiv_3/FloorDiv_3/y"], "attr": {"_cloned": {"b": true}, "T": {"type": "DT_INT32"}}}, {"name": "StatefulPartitionedCall/model_1/yamnet/StatefulPartitionedCall/StatefulPartitionedCall/yamnet_frames/tf_op_layer_Sub_4/Sub_4", "op": "Sub", "input": ["StatefulPartitionedCall/model_1/yamnet/StatefulPartitionedCall/StatefulPartitionedCall/yamnet_frames/tf_op_layer_Reshape_4/Reshape_4", "StatefulPartitionedCall/model_1/yamnet/StatefulPartitionedCall/StatefulPartitionedCall/yamnet_frames/tf_op_layer_Sub_4/Sub_4/y"], "attr": {"T": {"type": "DT_INT32"}, "_cloned": {"b": true}}}, {"name": "StatefulPartitionedCall/model_1/yamnet/StatefulPartitionedCall/StatefulPartitionedCall/yamnet_frames/tf_op_layer_Mul_4/Mul_4", "op": "Mul", "input": ["StatefulPartitionedCall/model_1/yamnet/StatefulPartitionedCall/StatefulPartitionedCall/yamnet_frames/tf_op_layer_FloorDiv_3/FloorDiv_3", "StatefulPartitionedCall/model_1/yamnet/StatefulPartitionedCall/StatefulPartitionedCall/yamnet_frames/tf_op_layer_Mul_4/Mul_4/y"], "attr": {"T": {"type": "DT_INT32"}, "_cloned": {"b": true}}}, {"name": "StatefulPartitionedCall/model_1/yamnet/StatefulPartitionedCall/StatefulPartitionedCall/yamnet_frames/tf_op_layer_concat_4/values_1/concat_4/values_1", "op": "Pack", "input": ["StatefulPartitionedCall/model_1/yamnet/StatefulPartitionedCall/StatefulPartitionedCall/yamnet_frames/tf_op_layer_FloorDiv_3/FloorDiv_3", "StatefulPartitionedCall/model_1/yamnet/StatefulPartitionedCall/StatefulPartitionedCall/yamnet_frames/tf_op_layer_concat_4/values_1/concat_4/values_1/1"], "attr": {"_cloned": {"b": true}, "T": {"type": "DT_INT32"}, "N": {"i": "2"}, "axis": {"i": "0"}}}, {"name": "StatefulPartitionedCall/model_1/yamnet/StatefulPartitionedCall/StatefulPartitionedCall/yamnet_frames/tf_op_layer_FloorDiv_2/FloorDiv_2", "op": "FloorDiv", "input": ["StatefulPartitionedCall/model_1/yamnet/StatefulPartitionedCall/StatefulPartitionedCall/yamnet_frames/tf_op_layer_Sub_4/Sub_4", "StatefulPartitionedCall/model_1/yamnet/StatefulPartitionedCall/StatefulPartitionedCall/yamnet_frames/tf_op_layer_FloorDiv_2/FloorDiv_2/y"], "attr": {"T": {"type": "DT_INT32"}, "_cloned": {"b": true}}}, {"name": "ConstantFolding/StatefulPartitionedCall/model_1/yamnet/StatefulPartitionedCall/StatefulPartitionedCall/yamnet_frames/tf_op_layer_concat_3/values_1/concat_3/values_1_const_axis", "op": "Const", "input": ["^StatefulPartitionedCall/model_1/yamnet/StatefulPartitionedCall/StatefulPartitionedCall/yamnet_frames/tf_op_layer_Mul_4/Mul_4"], "attr": {"value": {"tensor": {"dtype": "DT_INT32", "tensorShape": {}}}, "dtype": {"type": "DT_INT32"}}}, {"name": "StatefulPartitionedCall/model_1/yamnet/StatefulPartitionedCall/StatefulPartitionedCall/yamnet_frames/tf_op_layer_concat_4/concat_4", "op": "ConcatV2", "input": ["StatefulPartitionedCall/model_1/yamnet/StatefulPartitionedCall/StatefulPartitionedCall/yamnet_frames/tf_op_layer_split_1/split_1", "StatefulPartitionedCall/model_1/yamnet/StatefulPartitionedCall/StatefulPartitionedCall/yamnet_frames/tf_op_layer_concat_4/values_1/concat_4/values_1", "StatefulPartitionedCall/model_1/yamnet/StatefulPartitionedCall/StatefulPartitionedCall/yamnet_frames/tf_op_layer_split_1/split_1:2", "StatefulPartitionedCall/model_1/yamnet/StatefulPartitionedCall/StatefulPartitionedCall/yamnet_frames/tf_op_layer_concat_4/concat_4/axis"], "attr": {"T": {"type": "DT_INT32"}, "_cloned": {"b": true}, "Tidx": {"type": "DT_INT32"}, "N": {"i": "3"}}}, {"name": "StatefulPartitionedCall/model_1/yamnet/StatefulPartitionedCall/StatefulPartitionedCall/yamnet_frames/tf_op_layer_AddV2_4/AddV2_4", "op": "AddV2", "input": ["StatefulPartitionedCall/model_1/yamnet/StatefulPartitionedCall/StatefulPartitionedCall/yamnet_frames/tf_op_layer_AddV2_4/AddV2_4/x", "StatefulPartitionedCall/model_1/yamnet/StatefulPartitionedCall/StatefulPartitionedCall/yamnet_frames/tf_op_layer_FloorDiv_2/FloorDiv_2"], "attr": {"_cloned": {"b": true}, "T": {"type": "DT_INT32"}}}, {"name": "StatefulPartitionedCall/model_1/yamnet/StatefulPartitionedCall/StatefulPartitionedCall/yamnet_frames/tf_op_layer_concat_3/values_1/concat_3/values_1", "op": "ExpandDims", "input": ["StatefulPartitionedCall/model_1/yamnet/StatefulPartitionedCall/StatefulPartitionedCall/yamnet_frames/tf_op_layer_Mul_4/Mul_4", "ConstantFolding/StatefulPartitionedCall/model_1/yamnet/StatefulPartitionedCall/StatefulPartitionedCall/yamnet_frames/tf_op_layer_concat_3/values_1/concat_3/values_1_const_axis"], "attr": {"Tdim": {"type": "DT_INT32"}, "_cloned": {"b": true}, "T": {"type": "DT_INT32"}}}, {"name": "StatefulPartitionedCall/model_1/yamnet/StatefulPartitionedCall/StatefulPartitionedCall/yamnet_frames/tf_op_layer_Maximum_3/Maximum_3", "op": "Maximum", "input": ["StatefulPartitionedCall/model_1/yamnet/StatefulPartitionedCall/StatefulPartitionedCall/yamnet_frames/tf_op_layer_Maximum_3/Maximum_3/x", "StatefulPartitionedCall/model_1/yamnet/StatefulPartitionedCall/StatefulPartitionedCall/yamnet_frames/tf_op_layer_AddV2_4/AddV2_4"], "attr": {"T": {"type": "DT_INT32"}, "_cloned": {"b": true}}}, {"name": "StatefulPartitionedCall/model_1/yamnet/StatefulPartitionedCall/StatefulPartitionedCall/yamnet_frames/tf_op_layer_concat_3/concat_3", "op": "ConcatV2", "input": ["StatefulPartitionedCall/model_1/yamnet/StatefulPartitionedCall/StatefulPartitionedCall/yamnet_frames/tf_op_layer_split_1/split_1", "StatefulPartitionedCall/model_1/yamnet/StatefulPartitionedCall/StatefulPartitionedCall/yamnet_frames/tf_op_layer_concat_3/values_1/concat_3/values_1", "StatefulPartitionedCall/model_1/yamnet/StatefulPartitionedCall/StatefulPartitionedCall/yamnet_frames/tf_op_layer_split_1/split_1:2", "StatefulPartitionedCall/model_1/yamnet/StatefulPartitionedCall/StatefulPartitionedCall/yamnet_frames/tf_op_layer_concat_3/concat_3/axis"], "attr": {"Tidx": {"type": "DT_INT32"}, "T": {"type": "DT_INT32"}, "N": {"i": "3"}, "_cloned": {"b": true}}}, {"name": "StatefulPartitionedCall/model_1/yamnet/StatefulPartitionedCall/StatefulPartitionedCall/yamnet_frames/tf_op_layer_Range_1/Range_1", "op": "Range", "input": ["StatefulPartitionedCall/model_1/yamnet/StatefulPartitionedCall/StatefulPartitionedCall/yamnet_frames/tf_op_layer_Range_1/Range_1/start", "StatefulPartitionedCall/model_1/yamnet/StatefulPartitionedCall/StatefulPartitionedCall/yamnet_frames/tf_op_layer_Maximum_3/Maximum_3", "StatefulPartitionedCall/model_1/yamnet/StatefulPartitionedCall/StatefulPartitionedCall/yamnet_frames/tf_op_layer_Range_1/Range_1/delta"], "attr": {"Tidx": {"type": "DT_INT32"}, "_cloned": {"b": true}}}, {"name": "StatefulPartitionedCall/model_1/yamnet/StatefulPartitionedCall/StatefulPartitionedCall/yamnet_frames/tf_op_layer_Reshape_6/shape/Reshape_6/shape", "op": "Pack", "input": ["StatefulPartitionedCall/model_1/yamnet/StatefulPartitionedCall/StatefulPartitionedCall/yamnet_frames/tf_op_layer_Maximum_3/Maximum_3", "StatefulPartitionedCall/model_1/yamnet/StatefulPartitionedCall/StatefulPartitionedCall/yamnet_frames/tf_op_layer_Reshape_6/shape/Reshape_6/shape/1"], "attr": {"axis": {"i": "0"}, "T": {"type": "DT_INT32"}, "_cloned": {"b": true}, "N": {"i": "2"}}}, {"name": "StatefulPartitionedCall/model_1/yamnet/StatefulPartitionedCall/StatefulPartitionedCall/yamnet_frames/tf_op_layer_concat_5/values_1/concat_5/values_1", "op": "Pack", "input": ["StatefulPartitionedCall/model_1/yamnet/StatefulPartitionedCall/StatefulPartitionedCall/yamnet_frames/tf_op_layer_Maximum_3/Maximum_3", "StatefulPartitionedCall/model_1/yamnet/StatefulPartitionedCall/StatefulPartitionedCall/yamnet_frames/tf_op_layer_concat_5/values_1/Sub_4/y"], "attr": {"T": {"type": "DT_INT32"}, "N": {"i": "2"}, "axis": {"i": "0"}, "_cloned": {"b": true}}}, {"name": "StatefulPartitionedCall/model_1/yamnet/StatefulPartitionedCall/StatefulPartitionedCall/yamnet_frames/tf_op_layer_StridedSlice_1/StridedSlice_1", "op": "StridedSlice", "input": ["StatefulPartitionedCall/model_1/yamnet/StatefulPartitionedCall/StatefulPartitionedCall/yamnet_frames/tf_op_layer_Log/Log", "StatefulPartitionedCall/model_1/yamnet/StatefulPartitionedCall/StatefulPartitionedCall/yamnet_frames/tf_op_layer_ZerosLike_1/ZerosLike_1", "StatefulPartitionedCall/model_1/yamnet/StatefulPartitionedCall/StatefulPartitionedCall/yamnet_frames/tf_op_layer_concat_3/concat_3", "StatefulPartitionedCall/model_1/yamnet/StatefulPartitionedCall/StatefulPartitionedCall/yamnet_frames/tf_op_layer_Fill_1/Fill_1"], "attr": {"new_axis_mask": {"i": "0"}, "ellipsis_mask": {"i": "0"}, "T": {"type": "DT_FLOAT"}, "end_mask": {"i": "0"}, "begin_mask": {"i": "0"}, "Index": {"type": "DT_INT32"}, "shrink_axis_mask": {"i": "0"}, "_cloned": {"b": true}}}, {"name": "StatefulPartitionedCall/model_1/yamnet/StatefulPartitionedCall/StatefulPartitionedCall/yamnet_frames/tf_op_layer_Reshape_6/Reshape_6", "op": "Reshape", "input": ["StatefulPartitionedCall/model_1/yamnet/StatefulPartitionedCall/StatefulPartitionedCall/yamnet_frames/tf_op_layer_Range_1/Range_1", "StatefulPartitionedCall/model_1/yamnet/StatefulPartitionedCall/StatefulPartitionedCall/yamnet_frames/tf_op_layer_Reshape_6/shape/Reshape_6/shape"], "attr": {"_cloned": {"b": true}, "Tshape": {"type": "DT_INT32"}, "T": {"type": "DT_INT32"}}}, {"name": "StatefulPartitionedCall/model_1/yamnet/StatefulPartitionedCall/StatefulPartitionedCall/yamnet_frames/tf_op_layer_concat_5/concat_5", "op": "ConcatV2", "input": ["StatefulPartitionedCall/model_1/yamnet/StatefulPartitionedCall/StatefulPartitionedCall/yamnet_frames/tf_op_layer_split_1/split_1", "StatefulPartitionedCall/model_1/yamnet/StatefulPartitionedCall/StatefulPartitionedCall/yamnet_frames/tf_op_layer_concat_5/values_1/concat_5/values_1", "StatefulPartitionedCall/model_1/yamnet/StatefulPartitionedCall/StatefulPartitionedCall/yamnet_frames/tf_op_layer_split_1/split_1:2", "StatefulPartitionedCall/model_1/yamnet/StatefulPartitionedCall/StatefulPartitionedCall/yamnet_frames/tf_op_layer_concat_5/concat_5/axis"], "attr": {"N": {"i": "3"}, "T": {"type": "DT_INT32"}, "Tidx": {"type": "DT_INT32"}, "_cloned": {"b": true}}}, {"name": "StatefulPartitionedCall/model_1/yamnet/StatefulPartitionedCall/StatefulPartitionedCall/yamnet_frames/tf_op_layer_Reshape_5/Reshape_5", "op": "Reshape", "input": ["StatefulPartitionedCall/model_1/yamnet/StatefulPartitionedCall/StatefulPartitionedCall/yamnet_frames/tf_op_layer_StridedSlice_1/StridedSlice_1", "StatefulPartitionedCall/model_1/yamnet/StatefulPartitionedCall/StatefulPartitionedCall/yamnet_frames/tf_op_layer_concat_4/concat_4"], "attr": {"T": {"type": "DT_FLOAT"}, "_cloned": {"b": true}, "Tshape": {"type": "DT_INT32"}}}, {"name": "StatefulPartitionedCall/model_1/yamnet/StatefulPartitionedCall/StatefulPartitionedCall/yamnet_frames/tf_op_layer_AddV2_5/AddV2_5", "op": "AddV2", "input": ["StatefulPartitionedCall/model_1/yamnet/StatefulPartitionedCall/StatefulPartitionedCall/yamnet_frames/tf_op_layer_Reshape_6/Reshape_6", "StatefulPartitionedCall/model_1/yamnet/StatefulPartitionedCall/StatefulPartitionedCall/yamnet_frames/tf_op_layer_AddV2_5/AddV2_5/y"], "attr": {"T": {"type": "DT_INT32"}, "_cloned": {"b": true}}}, {"name": "StatefulPartitionedCall/model_1/yamnet/StatefulPartitionedCall/StatefulPartitionedCall/yamnet_frames/tf_op_layer_GatherV2_1/GatherV2_1", "op": "GatherV2", "input": ["StatefulPartitionedCall/model_1/yamnet/StatefulPartitionedCall/StatefulPartitionedCall/yamnet_frames/tf_op_layer_Reshape_5/Reshape_5", "StatefulPartitionedCall/model_1/yamnet/StatefulPartitionedCall/StatefulPartitionedCall/yamnet_frames/tf_op_layer_AddV2_5/AddV2_5", "StatefulPartitionedCall/model_1/yamnet/StatefulPartitionedCall/StatefulPartitionedCall/yamnet_frames/tf_op_layer_GatherV2_1/GatherV2_1/axis"], "attr": {"_cloned": {"b": true}, "Tindices": {"type": "DT_INT32"}, "Taxis": {"type": "DT_INT32"}, "Tparams": {"type": "DT_FLOAT"}, "batch_dims": {"i": "0"}}}, {"name": "StatefulPartitionedCall/model_1/yamnet/StatefulPartitionedCall/StatefulPartitionedCall/yamnet_frames/tf_op_layer_Reshape_7/Reshape_7", "op": "Reshape", "input": ["StatefulPartitionedCall/model_1/yamnet/StatefulPartitionedCall/StatefulPartitionedCall/yamnet_frames/tf_op_layer_GatherV2_1/GatherV2_1", "StatefulPartitionedCall/model_1/yamnet/StatefulPartitionedCall/StatefulPartitionedCall/yamnet_frames/tf_op_layer_concat_5/concat_5"], "attr": {"Tshape": {"type": "DT_INT32"}, "T": {"type": "DT_FLOAT"}, "_cloned": {"b": true}}}, {"name": "StatefulPartitionedCall/model_1/yamnet/StatefulPartitionedCall/StatefulPartitionedCall/yamnet_frames/reshape/Shape", "op": "Shape", "input": ["StatefulPartitionedCall/model_1/yamnet/StatefulPartitionedCall/StatefulPartitionedCall/yamnet_frames/tf_op_layer_Reshape_7/Reshape_7"], "attr": {"T": {"type": "DT_FLOAT"}, "out_type": {"type": "DT_INT32"}}}, {"name": "StatefulPartitionedCall/model_1/yamnet/StatefulPartitionedCall/StatefulPartitionedCall/yamnet_frames/reshape/strided_slice", "op": "StridedSlice", "input": ["StatefulPartitionedCall/model_1/yamnet/StatefulPartitionedCall/StatefulPartitionedCall/yamnet_frames/reshape/Shape", "StatefulPartitionedCall/model_1/yamnet/StatefulPartitionedCall/StatefulPartitionedCall/yamnet_frames/reshape/strided_slice/stack", "StatefulPartitionedCall/model_1/yamnet/StatefulPartitionedCall/StatefulPartitionedCall/yamnet_frames/reshape/strided_slice/stack_1", "StatefulPartitionedCall/model_1/yamnet/StatefulPartitionedCall/StatefulPartitionedCall/yamnet_frames/reshape/strided_slice/stack_2"], "attr": {"shrink_axis_mask": {"i": "1"}, "ellipsis_mask": {"i": "0"}, "T": {"type": "DT_INT32"}, "begin_mask": {"i": "0"}, "end_mask": {"i": "0"}, "Index": {"type": "DT_INT32"}, "new_axis_mask": {"i": "0"}}}, {"name": "StatefulPartitionedCall/model_1/yamnet/StatefulPartitionedCall/StatefulPartitionedCall/yamnet_frames/reshape/Reshape/shape", "op": "Pack", "input": ["StatefulPartitionedCall/model_1/yamnet/StatefulPartitionedCall/StatefulPartitionedCall/yamnet_frames/reshape/strided_slice", "StatefulPartitionedCall/model_1/yamnet/StatefulPartitionedCall/StatefulPartitionedCall/yamnet_frames/reshape/Reshape/shape/1", "StatefulPartitionedCall/model_1/yamnet/StatefulPartitionedCall/StatefulPartitionedCall/yamnet_frames/reshape/Reshape/shape/2", "StatefulPartitionedCall/model_1/yamnet/StatefulPartitionedCall/StatefulPartitionedCall/yamnet_frames/reshape/Reshape/shape/3"], "attr": {"axis": {"i": "0"}, "T": {"type": "DT_INT32"}, "N": {"i": "4"}}}, {"name": "StatefulPartitionedCall/model_1/yamnet/StatefulPartitionedCall/StatefulPartitionedCall/yamnet_frames/reshape/Reshape", "op": "Reshape", "input": ["StatefulPartitionedCall/model_1/yamnet/StatefulPartitionedCall/StatefulPartitionedCall/yamnet_frames/tf_op_layer_Reshape_7/Reshape_7", "StatefulPartitionedCall/model_1/yamnet/StatefulPartitionedCall/StatefulPartitionedCall/yamnet_frames/reshape/Reshape/shape"], "attr": {"T": {"type": "DT_FLOAT"}, "Tshape": {"type": "DT_INT32"}}}, {"name": "StatefulPartitionedCall/model_1/yamnet/StatefulPartitionedCall/StatefulPartitionedCall/yamnet_frames/layer1/relu/Relu", "op": "_FusedConv2D", "input": ["StatefulPartitionedCall/model_1/yamnet/StatefulPartitionedCall/StatefulPartitionedCall/yamnet_frames/reshape/Reshape", "StatefulPartitionedCall/model_1/yamnet/StatefulPartitionedCall/StatefulPartitionedCall/yamnet_frames/layer1/conv/Conv2D_weights", "StatefulPartitionedCall/model_1/yamnet/StatefulPartitionedCall/StatefulPartitionedCall/yamnet_frames/layer1/conv/Conv2D_bn_offset"], "device": "/device:CPU:0", "attr": {"T": {"type": "DT_FLOAT"}, "dilations": {"list": {"i": ["1", "1", "1", "1"]}}, "data_format": {"s": "TkhXQw=="}, "explicit_paddings": {"list": {}}, "strides": {"list": {"i": ["1", "2", "2", "1"]}}, "padding": {"s": "U0FNRQ=="}, "num_args": {"i": "1"}, "use_cudnn_on_gpu": {"b": true}, "fused_ops": {"list": {"s": ["Qmlhc0FkZA==", "UmVsdQ=="]}}, "epsilon": {"f": 0.0}}}, {"name": "StatefulPartitionedCall/model_1/yamnet/StatefulPartitionedCall/StatefulPartitionedCall/yamnet_frames/layer2/depthwise_conv/depthwise", "op": "FusedDepthwiseConv2dNative", "input": ["StatefulPartitionedCall/model_1/yamnet/StatefulPartitionedCall/StatefulPartitionedCall/yamnet_frames/layer1/relu/Relu", "StatefulPartitionedCall/model_1/yamnet/StatefulPartitionedCall/StatefulPartitionedCall/yamnet_frames/layer2/depthwise_conv/depthwise_weights", "StatefulPartitionedCall/model_1/yamnet/StatefulPartitionedCall/StatefulPartitionedCall/yamnet_frames/layer2/depthwise_conv/depthwise_bn_offset"], "attr": {"explicit_paddings": {"list": {}}, "fused_ops": {"list": {"s": ["Qmlhc0FkZA==", "UmVsdQ=="]}}, "data_format": {"s": "TkhXQw=="}, "num_args": {"i": "1"}, "strides": {"list": {"i": ["1", "1", "1", "1"]}}, "T": {"type": "DT_FLOAT"}, "padding": {"s": "U0FNRQ=="}, "dilations": {"list": {"i": ["1", "1", "1", "1"]}}}}, {"name": "StatefulPartitionedCall/model_1/yamnet/StatefulPartitionedCall/StatefulPartitionedCall/yamnet_frames/layer2/pointwise_conv/relu/Relu", "op": "_FusedConv2D", "input": ["StatefulPartitionedCall/model_1/yamnet/StatefulPartitionedCall/StatefulPartitionedCall/yamnet_frames/layer2/depthwise_conv/depthwise", "StatefulPartitionedCall/model_1/yamnet/StatefulPartitionedCall/StatefulPartitionedCall/yamnet_frames/layer2/pointwise_conv/Conv2D_weights", "StatefulPartitionedCall/model_1/yamnet/StatefulPartitionedCall/StatefulPartitionedCall/yamnet_frames/layer2/pointwise_conv/Conv2D_bn_offset"], "device": "/device:CPU:0", "attr": {"use_cudnn_on_gpu": {"b": true}, "T": {"type": "DT_FLOAT"}, "epsilon": {"f": 0.0}, "fused_ops": {"list": {"s": ["Qmlhc0FkZA==", "UmVsdQ=="]}}, "data_format": {"s": "TkhXQw=="}, "num_args": {"i": "1"}, "strides": {"list": {"i": ["1", "1", "1", "1"]}}, "padding": {"s": "U0FNRQ=="}, "explicit_paddings": {"list": {}}, "dilations": {"list": {"i": ["1", "1", "1", "1"]}}}}, {"name": "StatefulPartitionedCall/model_1/yamnet/StatefulPartitionedCall/StatefulPartitionedCall/yamnet_frames/layer3/depthwise_conv/depthwise", "op": "FusedDepthwiseConv2dNative", "input": ["StatefulPartitionedCall/model_1/yamnet/StatefulPartitionedCall/StatefulPartitionedCall/yamnet_frames/layer2/pointwise_conv/relu/Relu", "StatefulPartitionedCall/model_1/yamnet/StatefulPartitionedCall/StatefulPartitionedCall/yamnet_frames/layer3/depthwise_conv/depthwise_weights", "StatefulPartitionedCall/model_1/yamnet/StatefulPartitionedCall/StatefulPartitionedCall/yamnet_frames/layer3/depthwise_conv/depthwise_bn_offset"], "attr": {"dilations": {"list": {"i": ["1", "1", "1", "1"]}}, "padding": {"s": "U0FNRQ=="}, "num_args": {"i": "1"}, "strides": {"list": {"i": ["1", "2", "2", "1"]}}, "T": {"type": "DT_FLOAT"}, "fused_ops": {"list": {"s": ["Qmlhc0FkZA==", "UmVsdQ=="]}}, "data_format": {"s": "TkhXQw=="}, "explicit_paddings": {"list": {}}}}, {"name": "StatefulPartitionedCall/model_1/yamnet/StatefulPartitionedCall/StatefulPartitionedCall/yamnet_frames/layer3/pointwise_conv/relu/Relu", "op": "_FusedConv2D", "input": ["StatefulPartitionedCall/model_1/yamnet/StatefulPartitionedCall/StatefulPartitionedCall/yamnet_frames/layer3/depthwise_conv/depthwise", "StatefulPartitionedCall/model_1/yamnet/StatefulPartitionedCall/StatefulPartitionedCall/yamnet_frames/layer3/pointwise_conv/Conv2D_weights", "StatefulPartitionedCall/model_1/yamnet/StatefulPartitionedCall/StatefulPartitionedCall/yamnet_frames/layer3/pointwise_conv/Conv2D_bn_offset"], "device": "/device:CPU:0", "attr": {"use_cudnn_on_gpu": {"b": true}, "T": {"type": "DT_FLOAT"}, "explicit_paddings": {"list": {}}, "num_args": {"i": "1"}, "dilations": {"list": {"i": ["1", "1", "1", "1"]}}, "fused_ops": {"list": {"s": ["Qmlhc0FkZA==", "UmVsdQ=="]}}, "epsilon": {"f": 0.0}, "data_format": {"s": "TkhXQw=="}, "strides": {"list": {"i": ["1", "1", "1", "1"]}}, "padding": {"s": "U0FNRQ=="}}}, {"name": "StatefulPartitionedCall/model_1/yamnet/StatefulPartitionedCall/StatefulPartitionedCall/yamnet_frames/layer4/depthwise_conv/depthwise", "op": "FusedDepthwiseConv2dNative", "input": ["StatefulPartitionedCall/model_1/yamnet/StatefulPartitionedCall/StatefulPartitionedCall/yamnet_frames/layer3/pointwise_conv/relu/Relu", "StatefulPartitionedCall/model_1/yamnet/StatefulPartitionedCall/StatefulPartitionedCall/yamnet_frames/layer4/depthwise_conv/depthwise_weights", "StatefulPartitionedCall/model_1/yamnet/StatefulPartitionedCall/StatefulPartitionedCall/yamnet_frames/layer4/depthwise_conv/depthwise_bn_offset"], "attr": {"explicit_paddings": {"list": {}}, "data_format": {"s": "TkhXQw=="}, "padding": {"s": "U0FNRQ=="}, "num_args": {"i": "1"}, "T": {"type": "DT_FLOAT"}, "strides": {"list": {"i": ["1", "1", "1", "1"]}}, "fused_ops": {"list": {"s": ["Qmlhc0FkZA==", "UmVsdQ=="]}}, "dilations": {"list": {"i": ["1", "1", "1", "1"]}}}}, {"name": "StatefulPartitionedCall/model_1/yamnet/StatefulPartitionedCall/StatefulPartitionedCall/yamnet_frames/layer4/pointwise_conv/relu/Relu", "op": "_FusedConv2D", "input": ["StatefulPartitionedCall/model_1/yamnet/StatefulPartitionedCall/StatefulPartitionedCall/yamnet_frames/layer4/depthwise_conv/depthwise", "StatefulPartitionedCall/model_1/yamnet/StatefulPartitionedCall/StatefulPartitionedCall/yamnet_frames/layer4/pointwise_conv/Conv2D_weights", "StatefulPartitionedCall/model_1/yamnet/StatefulPartitionedCall/StatefulPartitionedCall/yamnet_frames/layer4/pointwise_conv/Conv2D_bn_offset"], "device": "/device:CPU:0", "attr": {"num_args": {"i": "1"}, "data_format": {"s": "TkhXQw=="}, "padding": {"s": "U0FNRQ=="}, "use_cudnn_on_gpu": {"b": true}, "explicit_paddings": {"list": {}}, "strides": {"list": {"i": ["1", "1", "1", "1"]}}, "epsilon": {"f": 0.0}, "T": {"type": "DT_FLOAT"}, "dilations": {"list": {"i": ["1", "1", "1", "1"]}}, "fused_ops": {"list": {"s": ["Qmlhc0FkZA==", "UmVsdQ=="]}}}}, {"name": "StatefulPartitionedCall/model_1/yamnet/StatefulPartitionedCall/StatefulPartitionedCall/yamnet_frames/layer5/depthwise_conv/depthwise", "op": "FusedDepthwiseConv2dNative", "input": ["StatefulPartitionedCall/model_1/yamnet/StatefulPartitionedCall/StatefulPartitionedCall/yamnet_frames/layer4/pointwise_conv/relu/Relu", "StatefulPartitionedCall/model_1/yamnet/StatefulPartitionedCall/StatefulPartitionedCall/yamnet_frames/layer5/depthwise_conv/depthwise_weights", "StatefulPartitionedCall/model_1/yamnet/StatefulPartitionedCall/StatefulPartitionedCall/yamnet_frames/layer5/depthwise_conv/depthwise_bn_offset"], "attr": {"fused_ops": {"list": {"s": ["Qmlhc0FkZA==", "UmVsdQ=="]}}, "data_format": {"s": "TkhXQw=="}, "explicit_paddings": {"list": {}}, "padding": {"s": "U0FNRQ=="}, "num_args": {"i": "1"}, "dilations": {"list": {"i": ["1", "1", "1", "1"]}}, "T": {"type": "DT_FLOAT"}, "strides": {"list": {"i": ["1", "2", "2", "1"]}}}}, {"name": "StatefulPartitionedCall/model_1/yamnet/StatefulPartitionedCall/StatefulPartitionedCall/yamnet_frames/layer5/pointwise_conv/relu/Relu", "op": "_FusedConv2D", "input": ["StatefulPartitionedCall/model_1/yamnet/StatefulPartitionedCall/StatefulPartitionedCall/yamnet_frames/layer5/depthwise_conv/depthwise", "StatefulPartitionedCall/model_1/yamnet/StatefulPartitionedCall/StatefulPartitionedCall/yamnet_frames/layer5/pointwise_conv/Conv2D_weights", "StatefulPartitionedCall/model_1/yamnet/StatefulPartitionedCall/StatefulPartitionedCall/yamnet_frames/layer5/pointwise_conv/Conv2D_bn_offset"], "device": "/device:CPU:0", "attr": {"data_format": {"s": "TkhXQw=="}, "padding": {"s": "U0FNRQ=="}, "use_cudnn_on_gpu": {"b": true}, "epsilon": {"f": 0.0}, "T": {"type": "DT_FLOAT"}, "dilations": {"list": {"i": ["1", "1", "1", "1"]}}, "fused_ops": {"list": {"s": ["Qmlhc0FkZA==", "UmVsdQ=="]}}, "num_args": {"i": "1"}, "strides": {"list": {"i": ["1", "1", "1", "1"]}}, "explicit_paddings": {"list": {}}}}, {"name": "StatefulPartitionedCall/model_1/yamnet/StatefulPartitionedCall/StatefulPartitionedCall/yamnet_frames/layer6/depthwise_conv/depthwise", "op": "FusedDepthwiseConv2dNative", "input": ["StatefulPartitionedCall/model_1/yamnet/StatefulPartitionedCall/StatefulPartitionedCall/yamnet_frames/layer5/pointwise_conv/relu/Relu", "StatefulPartitionedCall/model_1/yamnet/StatefulPartitionedCall/StatefulPartitionedCall/yamnet_frames/layer6/depthwise_conv/depthwise_weights", "StatefulPartitionedCall/model_1/yamnet/StatefulPartitionedCall/StatefulPartitionedCall/yamnet_frames/layer6/depthwise_conv/depthwise_bn_offset"], "attr": {"num_args": {"i": "1"}, "fused_ops": {"list": {"s": ["Qmlhc0FkZA==", "UmVsdQ=="]}}, "data_format": {"s": "TkhXQw=="}, "explicit_paddings": {"list": {}}, "strides": {"list": {"i": ["1", "1", "1", "1"]}}, "dilations": {"list": {"i": ["1", "1", "1", "1"]}}, "T": {"type": "DT_FLOAT"}, "padding": {"s": "U0FNRQ=="}}}, {"name": "StatefulPartitionedCall/model_1/yamnet/StatefulPartitionedCall/StatefulPartitionedCall/yamnet_frames/layer6/pointwise_conv/relu/Relu", "op": "_FusedConv2D", "input": ["StatefulPartitionedCall/model_1/yamnet/StatefulPartitionedCall/StatefulPartitionedCall/yamnet_frames/layer6/depthwise_conv/depthwise", "StatefulPartitionedCall/model_1/yamnet/StatefulPartitionedCall/StatefulPartitionedCall/yamnet_frames/layer6/pointwise_conv/Conv2D_weights", "StatefulPartitionedCall/model_1/yamnet/StatefulPartitionedCall/StatefulPartitionedCall/yamnet_frames/layer6/pointwise_conv/Conv2D_bn_offset"], "device": "/device:CPU:0", "attr": {"T": {"type": "DT_FLOAT"}, "epsilon": {"f": 0.0}, "data_format": {"s": "TkhXQw=="}, "dilations": {"list": {"i": ["1", "1", "1", "1"]}}, "num_args": {"i": "1"}, "use_cudnn_on_gpu": {"b": true}, "explicit_paddings": {"list": {}}, "fused_ops": {"list": {"s": ["Qmlhc0FkZA==", "UmVsdQ=="]}}, "strides": {"list": {"i": ["1", "1", "1", "1"]}}, "padding": {"s": "U0FNRQ=="}}}, {"name": "StatefulPartitionedCall/model_1/yamnet/StatefulPartitionedCall/StatefulPartitionedCall/yamnet_frames/layer7/depthwise_conv/depthwise", "op": "FusedDepthwiseConv2dNative", "input": ["StatefulPartitionedCall/model_1/yamnet/StatefulPartitionedCall/StatefulPartitionedCall/yamnet_frames/layer6/pointwise_conv/relu/Relu", "StatefulPartitionedCall/model_1/yamnet/StatefulPartitionedCall/StatefulPartitionedCall/yamnet_frames/layer7/depthwise_conv/depthwise_weights", "StatefulPartitionedCall/model_1/yamnet/StatefulPartitionedCall/StatefulPartitionedCall/yamnet_frames/layer7/depthwise_conv/depthwise_bn_offset"], "attr": {"dilations": {"list": {"i": ["1", "1", "1", "1"]}}, "data_format": {"s": "TkhXQw=="}, "T": {"type": "DT_FLOAT"}, "explicit_paddings": {"list": {}}, "padding": {"s": "U0FNRQ=="}, "num_args": {"i": "1"}, "strides": {"list": {"i": ["1", "2", "2", "1"]}}, "fused_ops": {"list": {"s": ["Qmlhc0FkZA==", "UmVsdQ=="]}}}}, {"name": "StatefulPartitionedCall/model_1/yamnet/StatefulPartitionedCall/StatefulPartitionedCall/yamnet_frames/layer7/pointwise_conv/relu/Relu", "op": "_FusedConv2D", "input": ["StatefulPartitionedCall/model_1/yamnet/StatefulPartitionedCall/StatefulPartitionedCall/yamnet_frames/layer7/depthwise_conv/depthwise", "StatefulPartitionedCall/model_1/yamnet/StatefulPartitionedCall/StatefulPartitionedCall/yamnet_frames/layer7/pointwise_conv/Conv2D_weights", "StatefulPartitionedCall/model_1/yamnet/StatefulPartitionedCall/StatefulPartitionedCall/yamnet_frames/layer7/pointwise_conv/Conv2D_bn_offset"], "device": "/device:CPU:0", "attr": {"padding": {"s": "U0FNRQ=="}, "T": {"type": "DT_FLOAT"}, "data_format": {"s": "TkhXQw=="}, "use_cudnn_on_gpu": {"b": true}, "fused_ops": {"list": {"s": ["Qmlhc0FkZA==", "UmVsdQ=="]}}, "dilations": {"list": {"i": ["1", "1", "1", "1"]}}, "num_args": {"i": "1"}, "epsilon": {"f": 0.0}, "strides": {"list": {"i": ["1", "1", "1", "1"]}}, "explicit_paddings": {"list": {}}}}, {"name": "StatefulPartitionedCall/model_1/yamnet/StatefulPartitionedCall/StatefulPartitionedCall/yamnet_frames/layer8/depthwise_conv/depthwise", "op": "FusedDepthwiseConv2dNative", "input": ["StatefulPartitionedCall/model_1/yamnet/StatefulPartitionedCall/StatefulPartitionedCall/yamnet_frames/layer7/pointwise_conv/relu/Relu", "StatefulPartitionedCall/model_1/yamnet/StatefulPartitionedCall/StatefulPartitionedCall/yamnet_frames/layer8/depthwise_conv/depthwise_weights", "StatefulPartitionedCall/model_1/yamnet/StatefulPartitionedCall/StatefulPartitionedCall/yamnet_frames/layer8/depthwise_conv/depthwise_bn_offset"], "attr": {"num_args": {"i": "1"}, "data_format": {"s": "TkhXQw=="}, "T": {"type": "DT_FLOAT"}, "explicit_paddings": {"list": {}}, "dilations": {"list": {"i": ["1", "1", "1", "1"]}}, "padding": {"s": "U0FNRQ=="}, "strides": {"list": {"i": ["1", "1", "1", "1"]}}, "fused_ops": {"list": {"s": ["Qmlhc0FkZA==", "UmVsdQ=="]}}}}, {"name": "StatefulPartitionedCall/model_1/yamnet/StatefulPartitionedCall/StatefulPartitionedCall/yamnet_frames/layer8/pointwise_conv/relu/Relu", "op": "_FusedConv2D", "input": ["StatefulPartitionedCall/model_1/yamnet/StatefulPartitionedCall/StatefulPartitionedCall/yamnet_frames/layer8/depthwise_conv/depthwise", "StatefulPartitionedCall/model_1/yamnet/StatefulPartitionedCall/StatefulPartitionedCall/yamnet_frames/layer8/pointwise_conv/Conv2D_weights", "StatefulPartitionedCall/model_1/yamnet/StatefulPartitionedCall/StatefulPartitionedCall/yamnet_frames/layer8/pointwise_conv/Conv2D_bn_offset"], "device": "/device:CPU:0", "attr": {"padding": {"s": "U0FNRQ=="}, "explicit_paddings": {"list": {}}, "fused_ops": {"list": {"s": ["Qmlhc0FkZA==", "UmVsdQ=="]}}, "epsilon": {"f": 0.0}, "strides": {"list": {"i": ["1", "1", "1", "1"]}}, "num_args": {"i": "1"}, "use_cudnn_on_gpu": {"b": true}, "T": {"type": "DT_FLOAT"}, "dilations": {"list": {"i": ["1", "1", "1", "1"]}}, "data_format": {"s": "TkhXQw=="}}}, {"name": "StatefulPartitionedCall/model_1/yamnet/StatefulPartitionedCall/StatefulPartitionedCall/yamnet_frames/layer9/depthwise_conv/depthwise", "op": "FusedDepthwiseConv2dNative", "input": ["StatefulPartitionedCall/model_1/yamnet/StatefulPartitionedCall/StatefulPartitionedCall/yamnet_frames/layer8/pointwise_conv/relu/Relu", "StatefulPartitionedCall/model_1/yamnet/StatefulPartitionedCall/StatefulPartitionedCall/yamnet_frames/layer9/depthwise_conv/depthwise_weights", "StatefulPartitionedCall/model_1/yamnet/StatefulPartitionedCall/StatefulPartitionedCall/yamnet_frames/layer9/depthwise_conv/depthwise_bn_offset"], "attr": {"strides": {"list": {"i": ["1", "1", "1", "1"]}}, "padding": {"s": "U0FNRQ=="}, "T": {"type": "DT_FLOAT"}, "data_format": {"s": "TkhXQw=="}, "fused_ops": {"list": {"s": ["Qmlhc0FkZA==", "UmVsdQ=="]}}, "explicit_paddings": {"list": {}}, "num_args": {"i": "1"}, "dilations": {"list": {"i": ["1", "1", "1", "1"]}}}}, {"name": "StatefulPartitionedCall/model_1/yamnet/StatefulPartitionedCall/StatefulPartitionedCall/yamnet_frames/layer9/pointwise_conv/relu/Relu", "op": "_FusedConv2D", "input": ["StatefulPartitionedCall/model_1/yamnet/StatefulPartitionedCall/StatefulPartitionedCall/yamnet_frames/layer9/depthwise_conv/depthwise", "StatefulPartitionedCall/model_1/yamnet/StatefulPartitionedCall/StatefulPartitionedCall/yamnet_frames/layer9/pointwise_conv/Conv2D_weights", "StatefulPartitionedCall/model_1/yamnet/StatefulPartitionedCall/StatefulPartitionedCall/yamnet_frames/layer9/pointwise_conv/Conv2D_bn_offset"], "device": "/device:CPU:0", "attr": {"data_format": {"s": "TkhXQw=="}, "epsilon": {"f": 0.0}, "padding": {"s": "U0FNRQ=="}, "explicit_paddings": {"list": {}}, "fused_ops": {"list": {"s": ["Qmlhc0FkZA==", "UmVsdQ=="]}}, "T": {"type": "DT_FLOAT"}, "dilations": {"list": {"i": ["1", "1", "1", "1"]}}, "num_args": {"i": "1"}, "strides": {"list": {"i": ["1", "1", "1", "1"]}}, "use_cudnn_on_gpu": {"b": true}}}, {"name": "StatefulPartitionedCall/model_1/yamnet/StatefulPartitionedCall/StatefulPartitionedCall/yamnet_frames/layer10/depthwise_conv/depthwise", "op": "FusedDepthwiseConv2dNative", "input": ["StatefulPartitionedCall/model_1/yamnet/StatefulPartitionedCall/StatefulPartitionedCall/yamnet_frames/layer9/pointwise_conv/relu/Relu", "StatefulPartitionedCall/model_1/yamnet/StatefulPartitionedCall/StatefulPartitionedCall/yamnet_frames/layer10/depthwise_conv/depthwise_weights", "StatefulPartitionedCall/model_1/yamnet/StatefulPartitionedCall/StatefulPartitionedCall/yamnet_frames/layer10/depthwise_conv/depthwise_bn_offset"], "attr": {"data_format": {"s": "TkhXQw=="}, "num_args": {"i": "1"}, "dilations": {"list": {"i": ["1", "1", "1", "1"]}}, "T": {"type": "DT_FLOAT"}, "explicit_paddings": {"list": {}}, "fused_ops": {"list": {"s": ["Qmlhc0FkZA==", "UmVsdQ=="]}}, "strides": {"list": {"i": ["1", "1", "1", "1"]}}, "padding": {"s": "U0FNRQ=="}}}, {"name": "StatefulPartitionedCall/model_1/yamnet/StatefulPartitionedCall/StatefulPartitionedCall/yamnet_frames/layer10/pointwise_conv/relu/Relu", "op": "_FusedConv2D", "input": ["StatefulPartitionedCall/model_1/yamnet/StatefulPartitionedCall/StatefulPartitionedCall/yamnet_frames/layer10/depthwise_conv/depthwise", "StatefulPartitionedCall/model_1/yamnet/StatefulPartitionedCall/StatefulPartitionedCall/yamnet_frames/layer10/pointwise_conv/Conv2D_weights", "StatefulPartitionedCall/model_1/yamnet/StatefulPartitionedCall/StatefulPartitionedCall/yamnet_frames/layer10/pointwise_conv/Conv2D_bn_offset"], "device": "/device:CPU:0", "attr": {"epsilon": {"f": 0.0}, "padding": {"s": "U0FNRQ=="}, "dilations": {"list": {"i": ["1", "1", "1", "1"]}}, "num_args": {"i": "1"}, "strides": {"list": {"i": ["1", "1", "1", "1"]}}, "use_cudnn_on_gpu": {"b": true}, "data_format": {"s": "TkhXQw=="}, "fused_ops": {"list": {"s": ["Qmlhc0FkZA==", "UmVsdQ=="]}}, "explicit_paddings": {"list": {}}, "T": {"type": "DT_FLOAT"}}}, {"name": "StatefulPartitionedCall/model_1/yamnet/StatefulPartitionedCall/StatefulPartitionedCall/yamnet_frames/layer11/depthwise_conv/depthwise", "op": "FusedDepthwiseConv2dNative", "input": ["StatefulPartitionedCall/model_1/yamnet/StatefulPartitionedCall/StatefulPartitionedCall/yamnet_frames/layer10/pointwise_conv/relu/Relu", "StatefulPartitionedCall/model_1/yamnet/StatefulPartitionedCall/StatefulPartitionedCall/yamnet_frames/layer11/depthwise_conv/depthwise_weights", "StatefulPartitionedCall/model_1/yamnet/StatefulPartitionedCall/StatefulPartitionedCall/yamnet_frames/layer11/depthwise_conv/depthwise_bn_offset"], "attr": {"strides": {"list": {"i": ["1", "1", "1", "1"]}}, "num_args": {"i": "1"}, "T": {"type": "DT_FLOAT"}, "data_format": {"s": "TkhXQw=="}, "explicit_paddings": {"list": {}}, "fused_ops": {"list": {"s": ["Qmlhc0FkZA==", "UmVsdQ=="]}}, "dilations": {"list": {"i": ["1", "1", "1", "1"]}}, "padding": {"s": "U0FNRQ=="}}}, {"name": "StatefulPartitionedCall/model_1/yamnet/StatefulPartitionedCall/StatefulPartitionedCall/yamnet_frames/layer11/pointwise_conv/relu/Relu", "op": "_FusedConv2D", "input": ["StatefulPartitionedCall/model_1/yamnet/StatefulPartitionedCall/StatefulPartitionedCall/yamnet_frames/layer11/depthwise_conv/depthwise", "StatefulPartitionedCall/model_1/yamnet/StatefulPartitionedCall/StatefulPartitionedCall/yamnet_frames/layer11/pointwise_conv/Conv2D_weights", "StatefulPartitionedCall/model_1/yamnet/StatefulPartitionedCall/StatefulPartitionedCall/yamnet_frames/layer11/pointwise_conv/Conv2D_bn_offset"], "device": "/device:CPU:0", "attr": {"padding": {"s": "U0FNRQ=="}, "epsilon": {"f": 0.0}, "data_format": {"s": "TkhXQw=="}, "num_args": {"i": "1"}, "fused_ops": {"list": {"s": ["Qmlhc0FkZA==", "UmVsdQ=="]}}, "explicit_paddings": {"list": {}}, "dilations": {"list": {"i": ["1", "1", "1", "1"]}}, "strides": {"list": {"i": ["1", "1", "1", "1"]}}, "T": {"type": "DT_FLOAT"}, "use_cudnn_on_gpu": {"b": true}}}, {"name": "StatefulPartitionedCall/model_1/yamnet/StatefulPartitionedCall/StatefulPartitionedCall/yamnet_frames/layer12/depthwise_conv/depthwise", "op": "FusedDepthwiseConv2dNative", "input": ["StatefulPartitionedCall/model_1/yamnet/StatefulPartitionedCall/StatefulPartitionedCall/yamnet_frames/layer11/pointwise_conv/relu/Relu", "StatefulPartitionedCall/model_1/yamnet/StatefulPartitionedCall/StatefulPartitionedCall/yamnet_frames/layer12/depthwise_conv/depthwise_weights", "StatefulPartitionedCall/model_1/yamnet/StatefulPartitionedCall/StatefulPartitionedCall/yamnet_frames/layer12/depthwise_conv/depthwise_bn_offset"], "attr": {"data_format": {"s": "TkhXQw=="}, "strides": {"list": {"i": ["1", "1", "1", "1"]}}, "num_args": {"i": "1"}, "T": {"type": "DT_FLOAT"}, "padding": {"s": "U0FNRQ=="}, "dilations": {"list": {"i": ["1", "1", "1", "1"]}}, "fused_ops": {"list": {"s": ["Qmlhc0FkZA==", "UmVsdQ=="]}}, "explicit_paddings": {"list": {}}}}, {"name": "StatefulPartitionedCall/model_1/yamnet/StatefulPartitionedCall/StatefulPartitionedCall/yamnet_frames/layer12/pointwise_conv/relu/Relu", "op": "_FusedConv2D", "input": ["StatefulPartitionedCall/model_1/yamnet/StatefulPartitionedCall/StatefulPartitionedCall/yamnet_frames/layer12/depthwise_conv/depthwise", "StatefulPartitionedCall/model_1/yamnet/StatefulPartitionedCall/StatefulPartitionedCall/yamnet_frames/layer12/pointwise_conv/Conv2D_weights", "StatefulPartitionedCall/model_1/yamnet/StatefulPartitionedCall/StatefulPartitionedCall/yamnet_frames/layer12/pointwise_conv/Conv2D_bn_offset"], "device": "/device:CPU:0", "attr": {"padding": {"s": "U0FNRQ=="}, "data_format": {"s": "TkhXQw=="}, "T": {"type": "DT_FLOAT"}, "fused_ops": {"list": {"s": ["Qmlhc0FkZA==", "UmVsdQ=="]}}, "use_cudnn_on_gpu": {"b": true}, "strides": {"list": {"i": ["1", "1", "1", "1"]}}, "epsilon": {"f": 0.0}, "explicit_paddings": {"list": {}}, "num_args": {"i": "1"}, "dilations": {"list": {"i": ["1", "1", "1", "1"]}}}}, {"name": "StatefulPartitionedCall/model_1/yamnet/StatefulPartitionedCall/StatefulPartitionedCall/yamnet_frames/layer13/depthwise_conv/depthwise", "op": "FusedDepthwiseConv2dNative", "input": ["StatefulPartitionedCall/model_1/yamnet/StatefulPartitionedCall/StatefulPartitionedCall/yamnet_frames/layer12/pointwise_conv/relu/Relu", "StatefulPartitionedCall/model_1/yamnet/StatefulPartitionedCall/StatefulPartitionedCall/yamnet_frames/layer13/depthwise_conv/depthwise_weights", "StatefulPartitionedCall/model_1/yamnet/StatefulPartitionedCall/StatefulPartitionedCall/yamnet_frames/layer13/depthwise_conv/depthwise_bn_offset"], "attr": {"strides": {"list": {"i": ["1", "2", "2", "1"]}}, "dilations": {"list": {"i": ["1", "1", "1", "1"]}}, "data_format": {"s": "TkhXQw=="}, "T": {"type": "DT_FLOAT"}, "explicit_paddings": {"list": {}}, "num_args": {"i": "1"}, "fused_ops": {"list": {"s": ["Qmlhc0FkZA==", "UmVsdQ=="]}}, "padding": {"s": "U0FNRQ=="}}}, {"name": "StatefulPartitionedCall/model_1/yamnet/StatefulPartitionedCall/StatefulPartitionedCall/yamnet_frames/layer13/pointwise_conv/relu/Relu", "op": "_FusedConv2D", "input": ["StatefulPartitionedCall/model_1/yamnet/StatefulPartitionedCall/StatefulPartitionedCall/yamnet_frames/layer13/depthwise_conv/depthwise", "StatefulPartitionedCall/model_1/yamnet/StatefulPartitionedCall/StatefulPartitionedCall/yamnet_frames/layer13/pointwise_conv/Conv2D_weights", "StatefulPartitionedCall/model_1/yamnet/StatefulPartitionedCall/StatefulPartitionedCall/yamnet_frames/layer13/pointwise_conv/Conv2D_bn_offset"], "device": "/device:CPU:0", "attr": {"explicit_paddings": {"list": {}}, "use_cudnn_on_gpu": {"b": true}, "T": {"type": "DT_FLOAT"}, "padding": {"s": "U0FNRQ=="}, "strides": {"list": {"i": ["1", "1", "1", "1"]}}, "dilations": {"list": {"i": ["1", "1", "1", "1"]}}, "data_format": {"s": "TkhXQw=="}, "fused_ops": {"list": {"s": ["Qmlhc0FkZA==", "UmVsdQ=="]}}, "epsilon": {"f": 0.0}, "num_args": {"i": "1"}}}, {"name": "StatefulPartitionedCall/model_1/yamnet/StatefulPartitionedCall/StatefulPartitionedCall/yamnet_frames/layer14/depthwise_conv/depthwise", "op": "FusedDepthwiseConv2dNative", "input": ["StatefulPartitionedCall/model_1/yamnet/StatefulPartitionedCall/StatefulPartitionedCall/yamnet_frames/layer13/pointwise_conv/relu/Relu", "StatefulPartitionedCall/model_1/yamnet/StatefulPartitionedCall/StatefulPartitionedCall/yamnet_frames/layer14/depthwise_conv/depthwise_weights", "StatefulPartitionedCall/model_1/yamnet/StatefulPartitionedCall/StatefulPartitionedCall/yamnet_frames/layer14/depthwise_conv/depthwise_bn_offset"], "attr": {"dilations": {"list": {"i": ["1", "1", "1", "1"]}}, "T": {"type": "DT_FLOAT"}, "strides": {"list": {"i": ["1", "1", "1", "1"]}}, "fused_ops": {"list": {"s": ["Qmlhc0FkZA==", "UmVsdQ=="]}}, "explicit_paddings": {"list": {}}, "num_args": {"i": "1"}, "padding": {"s": "U0FNRQ=="}, "data_format": {"s": "TkhXQw=="}}}, {"name": "StatefulPartitionedCall/model_1/yamnet/StatefulPartitionedCall/StatefulPartitionedCall/yamnet_frames/layer14/pointwise_conv/relu/Relu", "op": "_FusedConv2D", "input": ["StatefulPartitionedCall/model_1/yamnet/StatefulPartitionedCall/StatefulPartitionedCall/yamnet_frames/layer14/depthwise_conv/depthwise", "StatefulPartitionedCall/model_1/yamnet/StatefulPartitionedCall/StatefulPartitionedCall/yamnet_frames/layer14/pointwise_conv/Conv2D_weights", "StatefulPartitionedCall/model_1/yamnet/StatefulPartitionedCall/StatefulPartitionedCall/yamnet_frames/layer14/pointwise_conv/Conv2D_bn_offset"], "device": "/device:CPU:0", "attr": {"fused_ops": {"list": {"s": ["Qmlhc0FkZA==", "UmVsdQ=="]}}, "padding": {"s": "U0FNRQ=="}, "epsilon": {"f": 0.0}, "dilations": {"list": {"i": ["1", "1", "1", "1"]}}, "explicit_paddings": {"list": {}}, "strides": {"list": {"i": ["1", "1", "1", "1"]}}, "data_format": {"s": "TkhXQw=="}, "num_args": {"i": "1"}, "use_cudnn_on_gpu": {"b": true}, "T": {"type": "DT_FLOAT"}}}, {"name": "StatefulPartitionedCall/model_1/yamnet/StatefulPartitionedCall/StatefulPartitionedCall/yamnet_frames/global_average_pooling2d/Mean", "op": "Mean", "input": ["StatefulPartitionedCall/model_1/yamnet/StatefulPartitionedCall/StatefulPartitionedCall/yamnet_frames/layer14/pointwise_conv/relu/Relu", "StatefulPartitionedCall/model_1/yamnet/StatefulPartitionedCall/StatefulPartitionedCall/yamnet_frames/global_average_pooling2d/Mean/reduction_indices"], "attr": {"Tidx": {"type": "DT_INT32"}, "T": {"type": "DT_FLOAT"}, "keep_dims": {"b": false}}}, {"name": "StatefulPartitionedCall/model_1/my_model/dense/Relu", "op": "_FusedMatMul", "input": ["StatefulPartitionedCall/model_1/yamnet/StatefulPartitionedCall/StatefulPartitionedCall/yamnet_frames/global_average_pooling2d/Mean", "StatefulPartitionedCall/model_1/my_model/dense/MatMul/ReadVariableOp", "StatefulPartitionedCall/model_1/my_model/dense/BiasAdd/ReadVariableOp"], "device": "/device:CPU:0", "attr": {"transpose_a": {"b": false}, "num_args": {"i": "1"}, "epsilon": {"f": 0.0}, "T": {"type": "DT_FLOAT"}, "transpose_b": {"b": false}, "fused_ops": {"list": {"s": ["Qmlhc0FkZA==", "UmVsdQ=="]}}}}, {"name": "StatefulPartitionedCall/model_1/my_model/dense_1/BiasAdd", "op": "_FusedMatMul", "input": ["StatefulPartitionedCall/model_1/my_model/dense/Relu", "StatefulPartitionedCall/model_1/my_model/dense_1/MatMul/ReadVariableOp", "StatefulPartitionedCall/model_1/my_model/dense_1/BiasAdd/ReadVariableOp"], "device": "/device:CPU:0", "attr": {"num_args": {"i": "1"}, "transpose_a": {"b": false}, "T": {"type": "DT_FLOAT"}, "fused_ops": {"list": {"s": ["Qmlhc0FkZA=="]}}, "epsilon": {"f": 0.0}, "transpose_b": {"b": false}}}, {"name": "StatefulPartitionedCall/model_1/classifier/Mean", "op": "Mean", "input": ["StatefulPartitionedCall/model_1/my_model/dense_1/BiasAdd", "StatefulPartitionedCall/model_1/classifier/Mean/reduction_indices"], "attr": {"Tidx": {"type": "DT_INT32"}, "T": {"type": "DT_FLOAT"}, "keep_dims": {"b": false}}}, {"name": "Identity", "op": "Identity", "input": ["StatefulPartitionedCall/model_1/classifier/Mean"], "attr": {"T": {"type": "DT_FLOAT"}}}], "library": {}, "versions": {"producer": 987}}, "weightsManifest": [{"paths": ["group1-shard1of4.bin", "group1-shard2of4.bin", "group1-shard3of4.bin", "group1-shard4of4.bin"], "weights": [{"name": "StatefulPartitionedCall/model_1/my_model/dense/MatMul/ReadVariableOp", "shape": [1024, 512], "dtype": "float32"}, {"name": "StatefulPartitionedCall/model_1/my_model/dense/BiasAdd/ReadVariableOp", "shape": [512], "dtype": "float32"}, {"name": "StatefulPartitionedCall/model_1/my_model/dense_1/MatMul/ReadVariableOp", "shape": [512, 2], "dtype": "float32"}, {"name": "StatefulPartitionedCall/model_1/my_model/dense_1/BiasAdd/ReadVariableOp", "shape": [2], "dtype": "float32"}, {"name": "StatefulPartitionedCall/model_1/classifier/Mean/reduction_indices", "shape": [], "dtype": "int32"}, {"name": "StatefulPartitionedCall/model_1/yamnet/StatefulPartitionedCall/StatefulPartitionedCall/yamnet_frames/layer1/conv/Conv2D_weights", "shape": [3, 3, 1, 32], "dtype": "float32"}, {"name": "StatefulPartitionedCall/model_1/yamnet/StatefulPartitionedCall/StatefulPartitionedCall/yamnet_frames/layer12/pointwise_conv/Conv2D_bn_offset", "shape": [512], "dtype": "float32"}, {"name": "StatefulPartitionedCall/model_1/yamnet/StatefulPartitionedCall/StatefulPartitionedCall/yamnet_frames/layer1/conv/Conv2D_bn_offset", "shape": [32], "dtype": "float32"}, {"name": "StatefulPartitionedCall/model_1/yamnet/StatefulPartitionedCall/StatefulPartitionedCall/yamnet_frames/layer2/depthwise_conv/depthwise_weights", "shape": [3, 3, 32, 1], "dtype": "float32"}, {"name": "StatefulPartitionedCall/model_1/yamnet/StatefulPartitionedCall/StatefulPartitionedCall/yamnet_frames/layer2/depthwise_conv/depthwise_bn_offset", "shape": [32], "dtype": "float32"}, {"name": "StatefulPartitionedCall/model_1/yamnet/StatefulPartitionedCall/StatefulPartitionedCall/yamnet_frames/layer2/pointwise_conv/Conv2D_weights", "shape": [1, 1, 32, 64], "dtype": "float32"}, {"name": "StatefulPartitionedCall/model_1/yamnet/StatefulPartitionedCall/StatefulPartitionedCall/yamnet_frames/layer2/pointwise_conv/Conv2D_bn_offset", "shape": [64], "dtype": "float32"}, {"name": "StatefulPartitionedCall/model_1/yamnet/StatefulPartitionedCall/StatefulPartitionedCall/yamnet_frames/layer13/depthwise_conv/depthwise_weights", "shape": [3, 3, 512, 1], "dtype": "float32"}, {"name": "StatefulPartitionedCall/model_1/yamnet/StatefulPartitionedCall/StatefulPartitionedCall/yamnet_frames/layer3/depthwise_conv/depthwise_weights", "shape": [3, 3, 64, 1], "dtype": "float32"}, {"name": "StatefulPartitionedCall/model_1/yamnet/StatefulPartitionedCall/StatefulPartitionedCall/yamnet_frames/layer3/depthwise_conv/depthwise_bn_offset", "shape": [64], "dtype": "float32"}, {"name": "StatefulPartitionedCall/model_1/yamnet/StatefulPartitionedCall/StatefulPartitionedCall/yamnet_frames/layer3/pointwise_conv/Conv2D_weights", "shape": [1, 1, 64, 128], "dtype": "float32"}, {"name": "StatefulPartitionedCall/model_1/yamnet/StatefulPartitionedCall/StatefulPartitionedCall/yamnet_frames/layer3/pointwise_conv/Conv2D_bn_offset", "shape": [128], "dtype": "float32"}, {"name": "StatefulPartitionedCall/model_1/yamnet/StatefulPartitionedCall/StatefulPartitionedCall/yamnet_frames/layer13/depthwise_conv/depthwise_bn_offset", "shape": [512], "dtype": "float32"}, {"name": "StatefulPartitionedCall/model_1/yamnet/StatefulPartitionedCall/StatefulPartitionedCall/yamnet_frames/layer4/depthwise_conv/depthwise_weights", "shape": [3, 3, 128, 1], "dtype": "float32"}, {"name": "StatefulPartitionedCall/model_1/yamnet/StatefulPartitionedCall/StatefulPartitionedCall/yamnet_frames/layer4/depthwise_conv/depthwise_bn_offset", "shape": [128], "dtype": "float32"}, {"name": "StatefulPartitionedCall/model_1/yamnet/StatefulPartitionedCall/StatefulPartitionedCall/yamnet_frames/layer4/pointwise_conv/Conv2D_weights", "shape": [1, 1, 128, 128], "dtype": "float32"}, {"name": "StatefulPartitionedCall/model_1/yamnet/StatefulPartitionedCall/StatefulPartitionedCall/yamnet_frames/layer4/pointwise_conv/Conv2D_bn_offset", "shape": [128], "dtype": "float32"}, {"name": "StatefulPartitionedCall/model_1/yamnet/StatefulPartitionedCall/StatefulPartitionedCall/yamnet_frames/layer5/depthwise_conv/depthwise_weights", "shape": [3, 3, 128, 1], "dtype": "float32"}, {"name": "StatefulPartitionedCall/model_1/yamnet/StatefulPartitionedCall/StatefulPartitionedCall/yamnet_frames/layer5/depthwise_conv/depthwise_bn_offset", "shape": [128], "dtype": "float32"}, {"name": "StatefulPartitionedCall/model_1/yamnet/StatefulPartitionedCall/StatefulPartitionedCall/yamnet_frames/layer5/pointwise_conv/Conv2D_weights", "shape": [1, 1, 128, 256], "dtype": "float32"}, {"name": "StatefulPartitionedCall/model_1/yamnet/StatefulPartitionedCall/StatefulPartitionedCall/yamnet_frames/layer13/pointwise_conv/Conv2D_weights", "shape": [1, 1, 512, 1024], "dtype": "float32"}, {"name": "StatefulPartitionedCall/model_1/yamnet/StatefulPartitionedCall/StatefulPartitionedCall/yamnet_frames/layer5/pointwise_conv/Conv2D_bn_offset", "shape": [256], "dtype": "float32"}, {"name": "StatefulPartitionedCall/model_1/yamnet/StatefulPartitionedCall/StatefulPartitionedCall/yamnet_frames/layer6/depthwise_conv/depthwise_weights", "shape": [3, 3, 256, 1], "dtype": "float32"}, {"name": "StatefulPartitionedCall/model_1/yamnet/StatefulPartitionedCall/StatefulPartitionedCall/yamnet_frames/layer6/depthwise_conv/depthwise_bn_offset", "shape": [256], "dtype": "float32"}, {"name": "StatefulPartitionedCall/model_1/yamnet/StatefulPartitionedCall/StatefulPartitionedCall/yamnet_frames/layer6/pointwise_conv/Conv2D_weights", "shape": [1, 1, 256, 256], "dtype": "float32"}, {"name": "StatefulPartitionedCall/model_1/yamnet/StatefulPartitionedCall/StatefulPartitionedCall/yamnet_frames/layer13/pointwise_conv/Conv2D_bn_offset", "shape": [1024], "dtype": "float32"}, {"name": "StatefulPartitionedCall/model_1/yamnet/StatefulPartitionedCall/StatefulPartitionedCall/yamnet_frames/layer6/pointwise_conv/Conv2D_bn_offset", "shape": [256], "dtype": "float32"}, {"name": "StatefulPartitionedCall/model_1/yamnet/StatefulPartitionedCall/StatefulPartitionedCall/yamnet_frames/layer7/depthwise_conv/depthwise_weights", "shape": [3, 3, 256, 1], "dtype": "float32"}, {"name": "StatefulPartitionedCall/model_1/yamnet/StatefulPartitionedCall/StatefulPartitionedCall/yamnet_frames/layer7/depthwise_conv/depthwise_bn_offset", "shape": [256], "dtype": "float32"}, {"name": "StatefulPartitionedCall/model_1/yamnet/StatefulPartitionedCall/StatefulPartitionedCall/yamnet_frames/layer7/pointwise_conv/Conv2D_weights", "shape": [1, 1, 256, 512], "dtype": "float32"}, {"name": "StatefulPartitionedCall/model_1/yamnet/StatefulPartitionedCall/StatefulPartitionedCall/yamnet_frames/layer7/pointwise_conv/Conv2D_bn_offset", "shape": [512], "dtype": "float32"}, {"name": "StatefulPartitionedCall/model_1/yamnet/StatefulPartitionedCall/StatefulPartitionedCall/yamnet_frames/layer14/depthwise_conv/depthwise_weights", "shape": [3, 3, 1024, 1], "dtype": "float32"}, {"name": "StatefulPartitionedCall/model_1/yamnet/StatefulPartitionedCall/StatefulPartitionedCall/yamnet_frames/layer8/depthwise_conv/depthwise_weights", "shape": [3, 3, 512, 1], "dtype": "float32"}, {"name": "StatefulPartitionedCall/model_1/yamnet/StatefulPartitionedCall/StatefulPartitionedCall/yamnet_frames/layer8/depthwise_conv/depthwise_bn_offset", "shape": [512], "dtype": "float32"}, {"name": "StatefulPartitionedCall/model_1/yamnet/StatefulPartitionedCall/StatefulPartitionedCall/yamnet_frames/layer8/pointwise_conv/Conv2D_weights", "shape": [1, 1, 512, 512], "dtype": "float32"}, {"name": "StatefulPartitionedCall/model_1/yamnet/StatefulPartitionedCall/StatefulPartitionedCall/yamnet_frames/layer8/pointwise_conv/Conv2D_bn_offset", "shape": [512], "dtype": "float32"}, {"name": "StatefulPartitionedCall/model_1/yamnet/StatefulPartitionedCall/StatefulPartitionedCall/yamnet_frames/layer14/depthwise_conv/depthwise_bn_offset", "shape": [1024], "dtype": "float32"}, {"name": "StatefulPartitionedCall/model_1/yamnet/StatefulPartitionedCall/StatefulPartitionedCall/yamnet_frames/layer9/depthwise_conv/depthwise_weights", "shape": [3, 3, 512, 1], "dtype": "float32"}, {"name": "StatefulPartitionedCall/model_1/yamnet/StatefulPartitionedCall/StatefulPartitionedCall/yamnet_frames/layer9/depthwise_conv/depthwise_bn_offset", "shape": [512], "dtype": "float32"}, {"name": "StatefulPartitionedCall/model_1/yamnet/StatefulPartitionedCall/StatefulPartitionedCall/yamnet_frames/layer9/pointwise_conv/Conv2D_weights", "shape": [1, 1, 512, 512], "dtype": "float32"}, {"name": "StatefulPartitionedCall/model_1/yamnet/StatefulPartitionedCall/StatefulPartitionedCall/yamnet_frames/layer9/pointwise_conv/Conv2D_bn_offset", "shape": [512], "dtype": "float32"}, {"name": "StatefulPartitionedCall/model_1/yamnet/StatefulPartitionedCall/StatefulPartitionedCall/yamnet_frames/layer10/depthwise_conv/depthwise_weights", "shape": [3, 3, 512, 1], "dtype": "float32"}, {"name": "StatefulPartitionedCall/model_1/yamnet/StatefulPartitionedCall/StatefulPartitionedCall/yamnet_frames/layer10/depthwise_conv/depthwise_bn_offset", "shape": [512], "dtype": "float32"}, {"name": "StatefulPartitionedCall/model_1/yamnet/StatefulPartitionedCall/StatefulPartitionedCall/yamnet_frames/layer10/pointwise_conv/Conv2D_weights", "shape": [1, 1, 512, 512], "dtype": "float32"}, {"name": "StatefulPartitionedCall/model_1/yamnet/StatefulPartitionedCall/StatefulPartitionedCall/yamnet_frames/layer14/pointwise_conv/Conv2D_weights", "shape": [1, 1, 1024, 1024], "dtype": "float32"}, {"name": "StatefulPartitionedCall/model_1/yamnet/StatefulPartitionedCall/StatefulPartitionedCall/yamnet_frames/layer10/pointwise_conv/Conv2D_bn_offset", "shape": [512], "dtype": "float32"}, {"name": "StatefulPartitionedCall/model_1/yamnet/StatefulPartitionedCall/StatefulPartitionedCall/yamnet_frames/layer11/depthwise_conv/depthwise_weights", "shape": [3, 3, 512, 1], "dtype": "float32"}, {"name": "StatefulPartitionedCall/model_1/yamnet/StatefulPartitionedCall/StatefulPartitionedCall/yamnet_frames/layer11/depthwise_conv/depthwise_bn_offset", "shape": [512], "dtype": "float32"}, {"name": "StatefulPartitionedCall/model_1/yamnet/StatefulPartitionedCall/StatefulPartitionedCall/yamnet_frames/layer11/pointwise_conv/Conv2D_weights", "shape": [1, 1, 512, 512], "dtype": "float32"}, {"name": "StatefulPartitionedCall/model_1/yamnet/StatefulPartitionedCall/StatefulPartitionedCall/yamnet_frames/layer14/pointwise_conv/Conv2D_bn_offset", "shape": [1024], "dtype": "float32"}, {"name": "StatefulPartitionedCall/model_1/yamnet/StatefulPartitionedCall/StatefulPartitionedCall/yamnet_frames/layer11/pointwise_conv/Conv2D_bn_offset", "shape": [512], "dtype": "float32"}, {"name": "StatefulPartitionedCall/model_1/yamnet/StatefulPartitionedCall/StatefulPartitionedCall/yamnet_frames/layer12/depthwise_conv/depthwise_weights", "shape": [3, 3, 512, 1], "dtype": "float32"}, {"name": "StatefulPartitionedCall/model_1/yamnet/StatefulPartitionedCall/StatefulPartitionedCall/yamnet_frames/layer12/depthwise_conv/depthwise_bn_offset", "shape": [512], "dtype": "float32"}, {"name": "StatefulPartitionedCall/model_1/yamnet/StatefulPartitionedCall/StatefulPartitionedCall/yamnet_frames/layer12/pointwise_conv/Conv2D_weights", "shape": [1, 1, 512, 512], "dtype": "float32"}, {"name": "StatefulPartitionedCall/model_1/yamnet/StatefulPartitionedCall/StatefulPartitionedCall/yamnet_frames/tf_op_layer_Mul_4/Mul_4/y", "shape": [], "dtype": "int32"}, {"name": "StatefulPartitionedCall/model_1/yamnet/StatefulPartitionedCall/StatefulPartitionedCall/yamnet_frames/tf_op_layer_concat_3/concat_3/axis", "shape": [], "dtype": "int32"}, {"name": "StatefulPartitionedCall/model_1/yamnet/StatefulPartitionedCall/StatefulPartitionedCall/yamnet_frames/tf_op_layer_FloorDiv_3/FloorDiv_3/y", "shape": [], "dtype": "int32"}, {"name": "StatefulPartitionedCall/model_1/yamnet/StatefulPartitionedCall/StatefulPartitionedCall/yamnet_frames/tf_op_layer_concat_4/values_1/concat_4/values_1/1", "shape": [], "dtype": "int32"}, {"name": "StatefulPartitionedCall/model_1/yamnet/StatefulPartitionedCall/StatefulPartitionedCall/yamnet_frames/tf_op_layer_concat_4/concat_4/axis", "shape": [], "dtype": "int32"}, {"name": "StatefulPartitionedCall/model_1/yamnet/StatefulPartitionedCall/StatefulPartitionedCall/yamnet_frames/tf_op_layer_Range_1/Range_1/start", "shape": [], "dtype": "int32"}, {"name": "StatefulPartitionedCall/model_1/yamnet/StatefulPartitionedCall/StatefulPartitionedCall/yamnet_frames/tf_op_layer_Range_1/Range_1/delta", "shape": [], "dtype": "int32"}, {"name": "StatefulPartitionedCall/model_1/yamnet/StatefulPartitionedCall/StatefulPartitionedCall/yamnet_frames/tf_op_layer_Reshape_6/shape/Reshape_6/shape/1", "shape": [], "dtype": "int32"}, {"name": "StatefulPartitionedCall/model_1/yamnet/StatefulPartitionedCall/StatefulPartitionedCall/yamnet_frames/tf_op_layer_AddV2_5/AddV2_5/y", "shape": [1, 2], "dtype": "int32"}, {"name": "StatefulPartitionedCall/model_1/yamnet/StatefulPartitionedCall/StatefulPartitionedCall/yamnet_frames/tf_op_layer_GatherV2_1/GatherV2_1/axis", "shape": [], "dtype": "int32"}, {"name": "StatefulPartitionedCall/model_1/yamnet/StatefulPartitionedCall/StatefulPartitionedCall/yamnet_frames/tf_op_layer_Maximum_3/Maximum_3/x", "shape": [], "dtype": "int32"}, {"name": "StatefulPartitionedCall/model_1/yamnet/StatefulPartitionedCall/StatefulPartitionedCall/yamnet_frames/tf_op_layer_AddV2_4/AddV2_4/x", "shape": [], "dtype": "int32"}, {"name": "StatefulPartitionedCall/model_1/yamnet/StatefulPartitionedCall/StatefulPartitionedCall/yamnet_frames/tf_op_layer_Reshape_4/Reshape_4/shape", "shape": [0], "dtype": "int32"}, {"name": "StatefulPartitionedCall/model_1/yamnet/StatefulPartitionedCall/StatefulPartitionedCall/yamnet_frames/tf_op_layer_Sub_4/Sub_4/y", "shape": [], "dtype": "int32"}, {"name": "StatefulPartitionedCall/model_1/yamnet/StatefulPartitionedCall/StatefulPartitionedCall/yamnet_frames/tf_op_layer_FloorDiv_2/FloorDiv_2/y", "shape": [], "dtype": "int32"}, {"name": "StatefulPartitionedCall/model_1/yamnet/StatefulPartitionedCall/StatefulPartitionedCall/yamnet_frames/tf_op_layer_concat_5/values_1/Sub_4/y", "shape": [], "dtype": "int32"}, {"name": "StatefulPartitionedCall/model_1/yamnet/StatefulPartitionedCall/StatefulPartitionedCall/yamnet_frames/tf_op_layer_Mul_1/Mul_1/y", "shape": [], "dtype": "int32"}, {"name": "StatefulPartitionedCall/model_1/yamnet/StatefulPartitionedCall/StatefulPartitionedCall/yamnet_frames/tf_op_layer_concat/concat/axis", "shape": [], "dtype": "int32"}, {"name": "StatefulPartitionedCall/model_1/yamnet/StatefulPartitionedCall/StatefulPartitionedCall/yamnet_frames/tf_op_layer_FloorDiv_1/FloorDiv_1/y", "shape": [], "dtype": "int32"}, {"name": "StatefulPartitionedCall/model_1/yamnet/StatefulPartitionedCall/StatefulPartitionedCall/yamnet_frames/tf_op_layer_concat_1/values_1/concat_1/values_1/1", "shape": [], "dtype": "int32"}, {"name": "StatefulPartitionedCall/model_1/yamnet/StatefulPartitionedCall/StatefulPartitionedCall/yamnet_frames/tf_op_layer_concat_1/concat_1/axis", "shape": [], "dtype": "int32"}, {"name": "StatefulPartitionedCall/model_1/yamnet/StatefulPartitionedCall/StatefulPartitionedCall/yamnet_frames/tf_op_layer_Range/Range/start", "shape": [], "dtype": "int32"}, {"name": "StatefulPartitionedCall/model_1/yamnet/StatefulPartitionedCall/StatefulPartitionedCall/yamnet_frames/tf_op_layer_Range/Range/delta", "shape": [], "dtype": "int32"}, {"name": "StatefulPartitionedCall/model_1/yamnet/StatefulPartitionedCall/StatefulPartitionedCall/yamnet_frames/tf_op_layer_Mul_2/Mul_2/y", "shape": [], "dtype": "int32"}, {"name": "StatefulPartitionedCall/model_1/yamnet/StatefulPartitionedCall/StatefulPartitionedCall/yamnet_frames/tf_op_layer_Reshape_2/shape/Reshape_2/shape/1", "shape": [], "dtype": "int32"}, {"name": "StatefulPartitionedCall/model_1/yamnet/StatefulPartitionedCall/StatefulPartitionedCall/yamnet_frames/tf_op_layer_AddV2_2/AddV2_2/y", "shape": [1, 5], "dtype": "int32"}, {"name": "StatefulPartitionedCall/model_1/yamnet/StatefulPartitionedCall/StatefulPartitionedCall/yamnet_frames/tf_op_layer_GatherV2/GatherV2/axis", "shape": [], "dtype": "int32"}, {"name": "StatefulPartitionedCall/model_1/yamnet/StatefulPartitionedCall/StatefulPartitionedCall/yamnet_frames/tf_op_layer_Maximum_2/Maximum_2/x", "shape": [], "dtype": "int32"}, {"name": "StatefulPartitionedCall/model_1/yamnet/StatefulPartitionedCall/StatefulPartitionedCall/yamnet_frames/tf_op_layer_AddV2_1/AddV2_1/x", "shape": [], "dtype": "int32"}, {"name": "StatefulPartitionedCall/model_1/yamnet/StatefulPartitionedCall/StatefulPartitionedCall/yamnet_frames/tf_op_layer_Reshape/Reshape/shape", "shape": [0], "dtype": "int32"}, {"name": "StatefulPartitionedCall/model_1/yamnet/StatefulPartitionedCall/StatefulPartitionedCall/yamnet_frames/tf_op_layer_Sub_3/Sub_3/y", "shape": [], "dtype": "int32"}, {"name": "StatefulPartitionedCall/model_1/yamnet/StatefulPartitionedCall/StatefulPartitionedCall/yamnet_frames/tf_op_layer_FloorDiv/FloorDiv/y", "shape": [], "dtype": "int32"}, {"name": "StatefulPartitionedCall/model_1/yamnet/StatefulPartitionedCall/StatefulPartitionedCall/yamnet_frames/tf_op_layer_concat_2/values_1/Sub_3/y", "shape": [], "dtype": "int32"}, {"name": "StatefulPartitionedCall/model_1/yamnet/StatefulPartitionedCall/StatefulPartitionedCall/yamnet_frames/tf_op_layer_Pad/paddings/0/Pad/paddings/0/0", "shape": [], "dtype": "int32"}, {"name": "StatefulPartitionedCall/model_1/yamnet/StatefulPartitionedCall/StatefulPartitionedCall/yamnet_frames/tf_op_layer_Maximum/Maximum/x", "shape": [], "dtype": "int32"}, {"name": "StatefulPartitionedCall/model_1/yamnet/StatefulPartitionedCall/StatefulPartitionedCall/yamnet_frames/tf_op_layer_Sub/Sub/x", "shape": [], "dtype": "int32"}, {"name": "StatefulPartitionedCall/model_1/yamnet/StatefulPartitionedCall/StatefulPartitionedCall/yamnet_frames/tf_op_layer_Mul/Mul/x", "shape": [], "dtype": "int32"}, {"name": "ConstantFolding/StatefulPartitionedCall/model_1/yamnet/StatefulPartitionedCall/StatefulPartitionedCall/yamnet_frames/tf_op_layer_RealDiv/RealDiv_recip", "shape": [], "dtype": "float32"}, {"name": "StatefulPartitionedCall/model_1/yamnet/StatefulPartitionedCall/StatefulPartitionedCall/yamnet_frames/tf_op_layer_strided_slice/strided_slice/begin", "shape": [1], "dtype": "int32"}, {"name": "StatefulPartitionedCall/model_1/yamnet/StatefulPartitionedCall/StatefulPartitionedCall/yamnet_frames/tf_op_layer_strided_slice/strided_slice/end", "shape": [1], "dtype": "int32"}, {"name": "StatefulPartitionedCall/model_1/yamnet/StatefulPartitionedCall/StatefulPartitionedCall/yamnet_frames/tf_op_layer_strided_slice/strided_slice/strides", "shape": [1], "dtype": "int32"}, {"name": "StatefulPartitionedCall/model_1/yamnet/StatefulPartitionedCall/StatefulPartitionedCall/yamnet_frames/tf_op_layer_Maximum_1/Sub/x", "shape": [], "dtype": "int32"}, {"name": "StatefulPartitionedCall/model_1/yamnet/StatefulPartitionedCall/StatefulPartitionedCall/yamnet_frames/tf_op_layer_Sub_1/Sub/x", "shape": [], "dtype": "int32"}, {"name": "StatefulPartitionedCall/model_1/yamnet/StatefulPartitionedCall/StatefulPartitionedCall/yamnet_frames/tf_op_layer_split/split/size_splits", "shape": [3], "dtype": "int32"}, {"name": "StatefulPartitionedCall/model_1/yamnet/StatefulPartitionedCall/StatefulPartitionedCall/yamnet_frames/tf_op_layer_split/split/split_dim", "shape": [], "dtype": "int32"}, {"name": "StatefulPartitionedCall/model_1/yamnet/StatefulPartitionedCall/StatefulPartitionedCall/yamnet_frames/tf_op_layer_concat_2/concat_2/axis", "shape": [], "dtype": "int32"}, {"name": "StatefulPartitionedCall/model_1/yamnet/StatefulPartitionedCall/StatefulPartitionedCall/yamnet_frames/tf_op_layer_Mul_3/Mul_3/y", "shape": [400], "dtype": "float32"}, {"name": "StatefulPartitionedCall/model_1/yamnet/StatefulPartitionedCall/StatefulPartitionedCall/yamnet_frames/tf_op_layer_Pad_1/Pad_1/paddings", "shape": [2, 2], "dtype": "int32"}, {"name": "StatefulPartitionedCall/model_1/yamnet/StatefulPartitionedCall/StatefulPartitionedCall/yamnet_frames/tf_op_layer_RFFT/RFFT/fft_length", "shape": [1], "dtype": "int32"}, {"name": "StatefulPartitionedCall/model_1/yamnet/StatefulPartitionedCall/StatefulPartitionedCall/yamnet_frames/tf_op_layer_MatMul/MatMul/b", "shape": [257, 64], "dtype": "float32"}, {"name": "StatefulPartitionedCall/model_1/yamnet/StatefulPartitionedCall/StatefulPartitionedCall/yamnet_frames/tf_op_layer_AddV2_3/AddV2_3/y", "shape": [], "dtype": "float32"}, {"name": "StatefulPartitionedCall/model_1/yamnet/StatefulPartitionedCall/StatefulPartitionedCall/yamnet_frames/tf_op_layer_split_1/split_1/size_splits", "shape": [3], "dtype": "int32"}, {"name": "StatefulPartitionedCall/model_1/yamnet/StatefulPartitionedCall/StatefulPartitionedCall/yamnet_frames/tf_op_layer_split_1/split_1/split_dim", "shape": [], "dtype": "int32"}, {"name": "StatefulPartitionedCall/model_1/yamnet/StatefulPartitionedCall/StatefulPartitionedCall/yamnet_frames/tf_op_layer_concat_5/concat_5/axis", "shape": [], "dtype": "int32"}, {"name": "StatefulPartitionedCall/model_1/yamnet/StatefulPartitionedCall/StatefulPartitionedCall/yamnet_frames/reshape/strided_slice/stack", "shape": [1], "dtype": "int32"}, {"name": "StatefulPartitionedCall/model_1/yamnet/StatefulPartitionedCall/StatefulPartitionedCall/yamnet_frames/reshape/strided_slice/stack_1", "shape": [1], "dtype": "int32"}, {"name": "StatefulPartitionedCall/model_1/yamnet/StatefulPartitionedCall/StatefulPartitionedCall/yamnet_frames/reshape/strided_slice/stack_2", "shape": [1], "dtype": "int32"}, {"name": "StatefulPartitionedCall/model_1/yamnet/StatefulPartitionedCall/StatefulPartitionedCall/yamnet_frames/reshape/Reshape/shape/1", "shape": [], "dtype": "int32"}, {"name": "StatefulPartitionedCall/model_1/yamnet/StatefulPartitionedCall/StatefulPartitionedCall/yamnet_frames/reshape/Reshape/shape/2", "shape": [], "dtype": "int32"}, {"name": "StatefulPartitionedCall/model_1/yamnet/StatefulPartitionedCall/StatefulPartitionedCall/yamnet_frames/reshape/Reshape/shape/3", "shape": [], "dtype": "int32"}, {"name": "StatefulPartitionedCall/model_1/yamnet/StatefulPartitionedCall/StatefulPartitionedCall/yamnet_frames/global_average_pooling2d/Mean/reduction_indices", "shape": [2], "dtype": "int32"}, {"name": "ConstantFolding/StatefulPartitionedCall/model_1/yamnet/StatefulPartitionedCall/StatefulPartitionedCall/yamnet_frames/tf_op_layer_Pad/paddings/Pad/paddings_const_axis", "shape": [], "dtype": "int32"}, {"name": "StatefulPartitionedCall/model_1/yamnet/StatefulPartitionedCall/StatefulPartitionedCall/yamnet_frames/tf_op_layer_ZerosLike/ZerosLike", "shape": [1], "dtype": "int32"}, {"name": "StatefulPartitionedCall/model_1/yamnet/StatefulPartitionedCall/StatefulPartitionedCall/yamnet_frames/tf_op_layer_Fill/Fill", "shape": [1], "dtype": "int32"}, {"name": "ConstantFolding/StatefulPartitionedCall/model_1/yamnet/StatefulPartitionedCall/StatefulPartitionedCall/yamnet_frames/tf_op_layer_concat/values_1/concat/values_1_const_axis", "shape": [], "dtype": "int32"}, {"name": "StatefulPartitionedCall/model_1/yamnet/StatefulPartitionedCall/StatefulPartitionedCall/yamnet_frames/tf_op_layer_ZerosLike_1/ZerosLike_1", "shape": [2], "dtype": "int32"}, {"name": "StatefulPartitionedCall/model_1/yamnet/StatefulPartitionedCall/StatefulPartitionedCall/yamnet_frames/tf_op_layer_Fill_1/Fill_1", "shape": [2], "dtype": "int32"}, {"name": "ConstantFolding/StatefulPartitionedCall/model_1/yamnet/StatefulPartitionedCall/StatefulPartitionedCall/yamnet_frames/tf_op_layer_concat_3/values_1/concat_3/values_1_const_axis", "shape": [], "dtype": "int32"}]}]}